garment_classification/model/bottom.pt (torch, 276083 bytes, 22 tensors)

weight f4 [6, 3, 5, 5]
00000000: 3b68 c2bd 0fe8 9cbd 9097 1fbc 2fcf ad3d
00000010: 884a 91bd fc50 96bd fe5f bdbd 2c2c 69bd
00000020: 2b28 96bd 0dc0 c53d 2885 2b3e f670 2fbd
00000030: 150d eb3d fdf8 a13d d9e9 2cbd 97fd 2d3e
00000040: aecc 2fbe f0ae 89bd 8b1c 97bd 6654 c6bd
00000050: b2b2 893d a564 b2bd a386 0fbd 383f 1c3e
00000060: c794 043e 9856 1b3e 114e c3bd 28f4 883d
00000070: ce33 4abd 3da4 343d 9aa3 073e 0311 a53d
00000080: a0c2 25be a6cf fc3c da8b 083d 75b4 223d
00000090: a4ea 1bbe f414 2cbe 078f 3dbd 430d dfbd
000000a0: cbcd 443e 2fd6 02be 1a45 ad3c cba5 d63c
000000b0: 34fa 5bbd 9b2e 483e 2e5f d8bd 2569 5cbd
000000c0: bb0b e93d 1841 063e 6c26 efbc 8c3e 25be
000000d0: 78a4 fe3d c28b 083e aa59 07be 7d42 313e
000000e0: 96ce 3cbd 64d2 42be a7b8 e5bd 4cea 8c3d
000000f0: 5b58 cdbd bd33 aebd 3b92 a4bd 4a9e f33c
00000100: 0e79 bf3d 728f 103e 909f 26be b616 03bd
00000110: 5e35 893c 944f f43c 11f8 d0bd 98fe 373d
00000120: f66d 1cbe fc8f bbbd c5d8 2e3e 6f65 95bc
00000130: f35e 17bd c69b 083e 4dfc ddbd e6c3 893d
00000140: d8ac 363d 9ab1 dcbd 1799 cc3c 5f3e 363e
00000150: 199d 0e3d ba49 f9bc 33c0 913c eb6b dc3c
00000160: 9230 cb3d 8a48 50bd 0de5 2d3d f04b 1cbe
00000170: fa4b f0bd 84b7 e0bd 7445 a2bd 03d8 40bd
00000180: 31ec 09be 9e08 963d be82 aa3c 6c0b 08bd
00000190: 65c2 00be 993a 133e 7f42 48bc b4d5 183e
000001a0: ff8b bebd d395 f0bd 9f74 833d 4093 513d
000001b0: 4b1d d3bc ab18 37be 4b0b 433d 21bf e43c
000001c0: 8f82 d43d 76fb 1d3e 6509 a13d 099e 20bd
000001d0: ce2b c23d e531 0e3d e4cc b5bc 7331 34be
000001e0: 894b b03d 7684 a3bd bdc7 0b3e 11ce eebd
000001f0: ac13 0f3d 2d1c a0bd 6533 9a3d e1ed 043d
00000200: e784 093e d55a 25be ea56 44bd d75f 0f3e
00000210: e48d 12be 230e 17be 87c2 47be 7bb6 0cbd
00000220: 4dbe c43d b674 e73d 29cf fa3d 1622 cc3c
00000230: c2c6 f53d ee1a f8bd 0d82 a1bd 954f db3d
00000240: f051 23be 4550 30be c976 16be 3059 143e
00000250: 51be c0bd b935 7bbd e4ef 0e3e ac88 2cbe
00000260: 78a7 4abd a1d4 b4bd b04f c23d b109 233e
00000270: 0f94 79bc 9f3b 0bbe fcf2 4cbc e652 a73c
00000280: d9de b0bd dd0c e0bd 8b98 843c 9603 c3bd
00000290: b314 1c3e 19ce 003e 83c1 0dbe 69b6 503c
000002a0: cfde 123e a0f4 c73d 9018 23bd a83b 2bbd
000002b0: c8fd 253e 08ae d8bd 4379 24bd 8107 233d
000002c0: 3984 1cbb 3a4e 843d ac29 a93d 0e2e 2fbd
000002d0: f248 003e 6a99 07be 787a fbbd 1785 273e
000002e0: 3af2 993d 90a0 c53d ff69 37be 95ef 18bd
000002f0: f368 57bd 6ac1 26bd 13bd 233d b6ad 41bd
00000300: eb9b af3d a7da 08be bb54 a2bb 9bb3 e13d
00000310: 4ea5 35bd c6c0 01be f588 02bd bc33 ea3d
00000320: 9036 d83d 3004 10be f55e 4fbd d89e 3e3e
00000330: ce1e 873d 9546 a1bd b6b1 93bd ee1f b4bd
00000340: 16db 243e fd8d 983d 64bf 083c 598a 5ebd
00000350: 9b12 5ebd dd44 d5bd 3568 793d 209a 123c
00000360: cee5 f6bd 0247 de3d 8882 033e 341f 83bd
00000370: 5550 a0bc f23e febd 5bd4 b23c b590 1cbd
00000380: c1f1 1f3d b9f8 aabd cf13 b6bd 99a0 09be
00000390: 4127 93bd 59a8 d73d e89b febd 6b65 14be
000003a0: 5993 673d ab89 333e 3bda 18be faa3 413c
000003b0: cd97 283e 5f25 1b3e 43a4 eb3d de3b 203e
000003c0: 2333 32be bf27 56bd 5913 cfbd ed96 cd3d
000003d0: b5ec 5f3d 80de 2b3d 6357 9c3d 0dfd 763d
000003e0: ba05 a7bb 546b 30be 6879 33be b51e 933c
000003f0: fbd3 e73d 5525 7f3d 081c 6cbd d9e0 723d
-0.09492537 -0.07661449 -0.009740725 0.08486783 -0.07094294 -0.07339665 -0.09246825 -0.05692689
-0.0733188 0.096557714 0.16750014 -0.042832337 0.114771046 0.07908819 -0.042215202 0.16991268
-0.17167923 -0.0672282 -0.07378491 -0.096840665 0.067235366 -0.08710603 -0.03504051 0.15258491
0.12947379 0.15169752 -0.09536374 0.06687194 -0.04936581 0.044101942 0.13246003 0.08059885
-0.16187525 0.030860733 0.033336498 0.03972288 -0.15226227 -0.16804868 -0.04627898 -0.10891201
0.19219129 -0.12777017 0.021151114 0.026202103 -0.05370541 0.19549029 -0.10565029 -0.05381121
0.113791905 0.13110769 -0.029193126 -0.16137141 0.12433714 0.13334563 -0.13217798 0.1731052
-0.046095453 -0.1902557 -0.1121686 0.06880626 -0.10026618 -0.08505962 -0.08035704 0.029738564
0.09349261 0.1411722 -0.16271806 -0.03200408 0.01674908 0.029823102 -0.10203565 0.044920534
-0.15276322 -0.09158322 0.17074879 -0.018236844 -0.036955785 0.13340673 -0.10839138 0.06726818
0.04459843 -0.10776062 0.024975343 0.1779723 0.03481779 -0.030430663 0.017791843 0.026906928
0.099213734 -0.05085043 0.042454768 -0.15263343 -0.117332414 -0.10972503 -0.079234034 -0.047081005
-0.13469006 0.07325862 0.020814296 -0.033214018 -0.12574156 0.14377822 -0.012222885 0.14925271
-0.09304046 -0.11747327 0.06418728 0.05116582 -0.025770804 -0.17880504 0.04761819 0.027923169
0.103764646 0.15427956 0.0786312 -0.039213214 0.09481011 0.034715552 -0.022192426 -0.17596988
0.08608157 -0.07984249 0.13650413 -0.11660398 0.03493087 -0.07817874 0.07529334 0.03245342
0.13429604 -0.16147931 -0.04793445 0.14001404 -0.1431194 -0.14751486 -0.195078 -0.034353714
0.096066095 0.11301558 0.12246544 0.024918597 0.12000801 -0.121145114 -0.07886133 0.107085384
-0.15949225 -0.1721812 -0.1469375 0.14487147 -0.094113 -0.06133053 0.13958699 -0.16849011
-0.049476117 -0.08829618 0.094878554 0.15921666 -0.015233054 -0.13596962 -0.012509104 0.020425271
-0.08636255 -0.109399535 0.01618602 -0.09522168 0.15242271 0.1257862 -0.1384335 0.0127388025
0.14342807 0.097634554 -0.039818347 -0.04180494 0.16210091 -0.10580069 -0.040154707 0.03980208
-0.0023882522 0.06460233 0.082599014 -0.04276853 0.12527826 -0.13242117 -0.122792184 0.16359363
0.07516904 0.096497655 -0.17911528 -0.03733786 -0.05259032 -0.040711798 0.039975237 -0.047284804
0.08574661 -0.13364659 -0.0049539483 0.11020585 -0.0443471 -0.12671193 -0.031868894 0.11435649
0.10557282 -0.14064097 -0.050627667 0.18615282 0.065976724 -0.078747906 -0.0721163 -0.087951526
0.160992 0.07448957 0.008346412 -0.054331157 -0.054216962 -0.10413525 0.060890395 0.008947879
-0.120555505 0.108533874 0.12842762 -0.06402436 -0.019569555 -0.124143496 0.021829775 -0.03822394
0.039048914 -0.08348221 -0.08890497 -0.1344017 -0.071852215 0.10530157 -0.124320805 -0.14491813
0.056537006 0.17532985 -0.14926998 0.01181888 0.16464157 0.15150975 0.1150594 0.15647838
-0.1740232 -0.052284 -0.10111112 0.100385524 0.0546691 0.04196024 0.07633855 0.06029992
-0.005097118 -0.17228442 -0.17526782 0.017958978 0.11319729 0.062291462 -0.05764392 0.059296463

bias f4 [6]
00000000: 7c3a dbbb 0ecf cf3c 76e4 503c 600e ccbb
00000010: a061 15bc 8ed9 c3bb
-0.0066903215 0.025367286 0.012749782 -0.0062272996 -0.009117514 -0.0059768623

weight f4 [6]
00000000: f621 8d3f d46b 6b3f 973c 8b3f 81b5 633f
00000010: ab03 6b3f a98f 7c3f
1.1025989 0.9196141 1.0877866 0.8894883 0.9180247 0.9865671

bias f4 [6]
00000000: 43c5 1ebe 5b19 10be ab2d abbd bc34 febd
00000010: 0542 22be 7dfd 1dbe
-0.15504937 -0.14072172 -0.0835832 -0.12412402 -0.15845497 -0.1542873

running_mean f4 [6]
00000000: f71e 3f3e 154b a43e f394 e83c 5483 04be
00000010: c075 033f dd47 833f
0.18664156 0.32088533 0.028391337 -0.12940723 0.5135155 1.0256306

running_var f4 [6]
00000000: aa17 273e ab21 003e 79ce c93d 5be1 db3d
00000010: 7943 c53e 9ff6 ac3f
0.16317621 0.12512843 0.09853835 0.107363425 0.3852804 1.3512763

weight f4 [16, 6, 5, 5]
00000000: 763a 1e3d 7885 af3d 3d82 fdbc 8a65 553d
00000010: 260e d03d 5577 ce3d d071 61bd 4dd2 623d
00000020: 1a9c 53bd 4ee8 b1bd 7411 a7bc 30c5 b23d
00000030: c5e9 943d 841a 9ebd 9721 1b3d f21b da3d
00000040: d545 91bd d75e acbd c99b 723d e610 e0bd
00000050: 570f b8bd 08bd 17be 7a9a b63c 6c6e cc3d
00000060: 1373 ddbd be3e 46bd 6edc e23d 9d5b 43bb
00000070: bdfb 173b 1e16 a9bd 62da da3d c560 aabd
00000080: 7d22 b43b 27a5 5dbd 07a4 aabd c4cf cebc
00000090: b70b 2a3d da9a c9bd 6383 553c b1e4 353c
000000a0: 009b 5e3c 169e 6a3d e111 4b3d 9038 1ebd
000000b0: 14b6 4ebc 7056 21be 5b9b 9abc ac53 f03d
000000c0: 86d5 993d 62e2 833d 42e5 8fbd 14ae 863d
000000d0: 7c68 32bd a10c f2bd 5541 a83c d764 3a3d
000000e0: 00cc de3c 0a6d 493d f9ac 12be 7b2d dc3b
000000f0: c5b0 283c 8e4b cc3d dafc c3bd 52aa 01bd
00000100: 8ad4 4fbd b15a 19be 4f9d 0abe d836 dbbd
00000110: 43eb 1e3e 315b 043e 8229 20be d9cd 0bbe
00000120: 9511 16bd e6f4 213e 5c57 923d 9ad0 debd
00000130: 15fe f83c 4bf1 ddbd 2f14 7ebd 6c5f bd3d
00000140: a4b7 883d 304e fd3c 5f9b a4bd e9ed 95bd
00000150: 7b21 50bd 6550 733d e421 a6bd 2b1d 1e3c
00000160: 6026 1e3d ef83 2e3d cf82 1dbd 40a2 8cbd
00000170: bc7e ff3c f418 cfbc d6b6 d73c d025 2a3c
00000180: a705 dc3d 5dde da3d b73b 423d 2460 8dbd
00000190: 3198 25bd d07c b13d 69af c7bc e652 1d3b
000001a0: bf3e da3d 5ec9 94ba 0817 dc3d e78d ae3c
000001b0: a513 473d e6ab b63c f8dc 763c 834c 80bc
000001c0: 1c67 c93d 6b9b b6bd 7041 2bbb fd69 13bd
000001d0: 6795 b6bd 71c3 aebd 8fd0 9a3d 7052 4ebd
000001e0: a27c 793c 3175 89bd 46cf b4bc 0ec7 9cbc
000001f0: 95ec 7e3d e2bf d63d 2cc9 5abd ae2c 2d3d
00000200: 2860 a4bc 03b8 79bd b504 d03d e890 833c
00000210: 5ac5 9fbc aca4 8b3d 6bb8 aebc fd75 ebbc
00000220: 8764 733d 71c1 20bd 2d10 6abd 3a5e 263d
00000230: a912 7fbd b1b5 1a3d e024 163d 54e0 b4bd
00000240: fb51 bb3d de93 ecbd 4dac 45bd f240 4cbd
00000250: 3496 193c 1630 263d 8fd4 95bd 5b2c e5bd
00000260: e78a 8f3d ba36 34bc 6865 8bba bf60 53bd
00000270: 25c6 e1bc 9ee2 f2bd 3f4a 2ebd ff70 8b3d
00000280: 43c2 f2bd 5b33 a83c 7bd7 c43c d94e 043d
00000290: c268 3a3c dce4 1dbd fed8 a03c f1f8 f93c
000002a0: 8f14 c33d e5a9 a73d 58a1 eebd 7ac9 78bd
000002b0: 3273 68bc ab03 31bd 3755 813d 4a48 78bc
000002c0: 2c47 fcbd c2a3 953d 360e 433d 1266 04be
000002d0: 5a04 e53c 73f0 1dbd 39ea e4bc 2ded bebd
000002e0: 15b9 e83c 2d12 663d be6e 65bd 5ab4 76bd
000002f0: bd23 a2bd 6621 583d 60bf ddbd 8981 833c
00000300: 63e5 4e3d e9c2 213d e155 7ebd ec98 9f3d
00000310: e4d4 3fbd 2db2 0a3e e638 dc3d 62fe 383d
00000320: 8a2f ccbd 5496 91bd 5792 e0bd 1d1c 31bd
00000330: 9101 f03d 9191 b8bd dc05 3e3d 68de 983d
00000340: ef0d 8e3d 392d 88bd 2e1d 34be b4de 963d
00000350: 6633 75bd 4aa6 78bd 2f73 8c3d f332 bfbd
00000360: 4a10 f53d f8df 8c3d 5bf7 a53d 8c67 fdbc
00000370: aaa0 ffbc 36ec af3d d6af 38bd 5a26 dabc
00000380: dac7 81bd 7615 08be 9b11 663d 4173 e3bd
00000390: 6de6 cdbc 6c3d 0f3c 54df 423b 52b2 e0bd
000003a0: 548c 723d 9988 9bbc 45e7 f63c 18d2 833d
000003b0: c71d 19bd 90b4 003d 399c f9bc fcd1 84bd
000003c0: 2d47 8cbc f49d 6ebd 348f b93b e1ec e33c
000003d0: 4fc3 93bc 298d d83c 60e0 babd 0efd 2bbd
000003e0: 10d4 6f3c e6b3 17bd 3b40 9c3d 4d34 debd
000003f0: 3b58 10bd 69aa 0a3d b992 123d 1e16 a1bd
0.03862997 0.08570379 -0.030945892 0.05209879 0.101589486 0.100813545 -0.05504018 0.05537634
-0.051662542 -0.08686887 -0.020394064 0.08729017 0.072711505 -0.07719901 0.03787383 0.106498614
-0.070933975 -0.08416527 0.0592306 -0.10940723 -0.08987301 -0.14818203 0.022290457 0.09981999
-0.10812964 -0.04839968 0.110772 -0.0029809244 0.002319082 -0.08256172 0.106861845 -0.083192386
0.0054972754 -0.05411258 -0.08332067 -0.025245555 0.04151508 -0.09843989 0.013031813 0.011101888
0.01358676 0.05727967 0.049577598 -0.03862816 -0.012616653 -0.1575563 -0.018872907 0.11734709
0.075114295 0.064396635 -0.07026149 0.065761715 -0.043556675 -0.11818815 0.020538965 0.045506325
0.027196884 0.049176253 -0.14323796 0.006719289 0.010296051 0.099753484 -0.09569712 -0.03165657
-0.050739802 -0.14976002 -0.13536571 -0.1070382 0.15519433 0.12925412 -0.15640834 -0.13652743
-0.03663786 0.15816078 0.07145569 -0.10879631 0.030394593 -0.108370386 -0.062030967 0.09246716
0.06675652 0.030921072 -0.08037447 -0.073207684 -0.05081318 0.059402842 -0.08111933 0.009650509
0.038610816 0.04260629 -0.038454827 -0.06866884 0.031188361 -0.025280453 0.0263323 0.010384992
0.107432656 0.10686944 0.04742023 -0.06903103 -0.040428344 0.08666384 -0.024375634 0.002400571
0.10656499 -0.0011351516 0.1074658 0.021307899 0.04860272 0.022298764 0.0150673315 -0.015661484
0.0983412 -0.089163624 -0.0026131533 -0.03598975 -0.08915215 -0.08533371 0.07559311 -0.050371587
0.015227469 -0.067118056 -0.022071492 -0.019137885 0.06223734 0.104858175 -0.05341451 0.042278938
-0.020065382 -0.060966503 0.10157148 0.016060308 -0.019503284 0.06818518 -0.021328172 -0.028742785
0.059422042 -0.03924698 -0.057144333 0.040617205 -0.062273655 0.03777093 0.03665626 -0.0883185
0.09146496 -0.11551641 -0.048260022 -0.049866624 0.00937419 0.040573202 -0.07315933 -0.11190101
0.070089154 -0.010999376 -0.001063508 -0.051605936 -0.027560303 -0.1185963 -0.042551275 0.06808662
-0.11853459 0.0205323 0.02402853 0.032301757 0.011377515 -0.038548335 0.01963472 0.030514212
0.095254056 0.08186702 -0.11651868 -0.060739018 -0.014187621 -0.04321639 0.063150816 -0.015153954
-0.123182625 0.07306625 0.047620974 -0.12929562 0.027956177 -0.03855939 -0.027943717 -0.093225814
0.028408566 0.056169678 -0.056013815 -0.06023059 -0.07916973 0.052766226 -0.108275175 0.016052978
0.05051173 0.03949252 -0.06209362 0.077928394 -0.046833888 0.13544531 0.1075304 0.045164473
-0.09970005 -0.07108751 -0.10965412 -0.0432397 0.11719049 -0.090121396 0.046392307 0.074642956
0.06936251 -0.066492505 -0.17589256 0.07366696 -0.05986347 -0.06070546 0.06857907 -0.0933589
0.119659975 0.06878656 0.0810382 -0.030933164 -0.03120454 0.085899755 -0.045089565 -0.026629616
-0.06336947 -0.13289437 0.056169134 -0.11105967 -0.02513429 0.008742671 0.0029735165 -0.10971512
0.05921586 -0.018986033 0.030139575 0.064365566 -0.037381914 0.031422198 -0.03047 -0.06485364
-0.017123783 -0.058256105 0.005662823 0.027822914 -0.018037466 0.026434498 -0.091248274 -0.04198938
0.014637962 -0.0370368 0.076294385 -0.10849819 -0.035240393 0.033853922 0.035784457 -0.07865547

bias f4 [16]
00000000: 4b74 95bb 9d08 183c 2914 4e3c 86e6 92bc
00000010: 2821 cfbb b6a1 6fbc 4131 b33b be3b 6dbc
00000020: 092a c7bb e35b 18bc f22d 7ebb 3452 84bc
00000030: b062 56bc c252 c4bc ba7e c2bc 953d 7bbc
-0.0045609823 0.009279397 0.012578049 -0.017932188 -0.006321091 -0.014625957 0.005468518 -0.014479576
-0.006078009 -0.009299251 -0.003878471 -0.016152479 -0.013085052 -0.023965243 -0.023742069 -0.0153345065

weight f4 [16]
00000000: 7f93 8d3f d84a 7a3f a6be 7a3f f8d5 813f
00000010: 19b2 7e3f 8ef6 7f3f 3ca1 8d3f 1c6f 873f
00000020: 1ebc 763f faba 7d3f ca52 663f 872b 783f
00000030: fb8f 763f ad65 873f 3487 823f c9aa 6b3f
1.1060637 0.9777045 0.97947156 1.0143423 0.99490505 0.9998559 1.106483 1.0580783
0.96380794 0.9911343 0.89970076 0.9694142 0.96313447 1.0577904 1.0197511 0.9205747

bias f4 [16]
00000000: 7aa3 513c 87f8 ffbd b352 16bd 4264 b0bd
00000010: 7dc1 54bd 6c94 8bbd 88d2 74bb 98bc 41bd
00000020: 49ca 19be 1829 82bc 6483 54be 25cf 98bd
00000030: 4368 43bd ccb4 cabc 4bbe 27bd 710a 6dbd
0.0127953235 -0.12498575 -0.036699962 -0.08612873 -0.051942337 -0.068154186 -0.0037356932 -0.047298998
-0.15018572 -0.015888736 -0.20753247 -0.07461385 -0.047706854 -0.024744414 -0.040952962 -0.057871286

running_mean f4 [16]
00000000: 8481 25be 0502 73be 8c61 113c a85c 82be
00000010: 95a6 18be 5e95 62be a1e6 52be e57f b9be
00000020: 5023 933e c762 b4bc 4487 3e3f 32d3 89be
00000030: 3afe 4cbe 35ad 5dbe 6961 91be 45e6 62be
-0.16162688 -0.23731239 0.008873355 -0.25461316 -0.14907296 -0.22127292 -0.2059579 -0.36230388
0.2873788 -0.022019757 0.7442515 -0.26918942 -0.20018855 -0.21648104 -0.2839463 -0.22158153

running_var f4 [16]
00000000: 5e17 023e adf3 a13e 607c ca3e adb9 bc3e
00000010: 4db0 c63d 6089 2c3e d73f da3e 41b7 2c3e
00000020: 107f 913e e246 5d3e 9073 c83e 2872 3f3e
00000030: 6694 ae3e 806d 0e3e e885 9f3e f9eb b23e
0.12704226 0.31631222 0.39548016 0.3686041 0.097015955 0.1684928 0.4262683 0.16866781
0.28417253 0.21609071 0.39150667 0.18695891 0.34097594 0.13908958 0.3115685 0.34945658

weight f4 [120, 16, 5, 5]
00000000: 0963 09bd 5599 87bd d72e 883b 32c1 2dbd
00000010: 0048 85bc 9226 fcbc 7b6b 34bd aaf7 bbbc
00000020: ae31 b2bc dc01 813c 8a91 26bd 4c44 193d
00000030: 3bbf 433d 4258 1a3d eeba b0bc 0078 e53b
00000040: 456b 873c a66e a6bc 8aec 46bb 32ad 0a3c
00000050: 02d9 6bbc c835 e33c a442 353c b937 10bc
00000060: afab 203d eebc 0d3c bfbb 873d ba07 88bc
00000070: 0ead 053d 2658 5d3c fcf0 893d 6aa5 303d
00000080: 3358 9fba fceb babb f58a 8bbc 5c53 713d
00000090: 07ee e63c de8f 91bc 3abc 22bb 6eab 8dbd
000000a0: 326e 88b9 8a5c cbbc 53fc 66bd 22ee 033d
000000b0: a64b 3abc 0199 55bc 6ee2 9abb 62b3 323c
000000c0: 9539 623d 144b 683a 56c1 783d 3ab8 403c
000000d0: b6a1 53bc ee96 ca3c ffea adbc cf73 e0bc
000000e0: a98e 863c c5b2 6dbb e29c e6bc 956b 66bd
000000f0: 0fe9 2cbd eaf8 a73b c5a2 653c dea9 45bc
00000100: dade 40bd 0bf3 2abd 1b79 cabc 4152 1d3d
00000110: 45cf ba3c e4d8 b1bd 09a7 4abb 6530 573c
00000120: 1e1d bc3b 7bcb 053d 6ec0 09bd bab9 6fbc
00000130: 4ec1 053c d2ca 49bc 3620 a3bd 5e81 90bb
00000140: 117a ad3d e20f a43c 7bf4 45bd 0e4c 85bc
00000150: 3ecf 2cbd 87fe c73d 58a2 093c bb66 1cbd
00000160: 2183 7fbd e3af 9dba b0ce cc3c 7365 6ebd
00000170: f26c 6e3d 79ca 33bd c01c 90bd 892e 3ebc
00000180: 1baf 87bc 0358 c73c f89b b4bc 743a 2dbc
00000190: 808d a93b 4ddb babc b873 0dbd d765 843d
000001a0: 9e98 91bb 2c66 283d 5e1b adbc def8 273c
000001b0: 671b a03c 0709 ce3c 8269 173d b693 cc3c
000001c0: b581 bebc 6f47 003c 0594 9d3a fe08 6f3d
000001d0: 69f6 bcbc f9a8 73bc 0639 57bd 0dd3 6dba
000001e0: cc3b d13d fe0b 513b 7e8d bbbc c6de 1ebc
000001f0: e909 25bb 8912 21bd 085e 243d 4f2d afbc
00000200: c94b 07bc 1f56 abbc 01a6 85bc cf93 fe3c
00000210: f65e 163c 3c9c 2e3c 0457 22ba 98f3 a03a
00000220: 67f7 0d3d 9dd9 ca3c ef74 b43c 28e7 3dbd
00000230: 9bc5 a1bb 6eff 903b e892 96bb 23fb b7bc
00000240: bc94 79bd 62a9 d63c 43e5 8abc afdc b3bc
00000250: 4b49 83bd d94b d2bc f8ef 9d3c ea0e 53bc
00000260: c354 493c 42ce ff3a 544d 07bc 9a51 b13c
00000270: 26e5 9ebd 7d9a abbc 72bc e33a 4aff 5a3b
00000280: 05c5 593d 275e 0836 9208 703a e9aa 00bd
00000290: f3d9 47bd 5a89 06bd 770f 03bc 6ae2 b93a
000002a0: 2170 6a3c f0ac e93b b60d 663c 643d 81bc
000002b0: 6b79 023c 99f7 28bd 8891 fc3c f207 c1bc
000002c0: 3008 15bd 2cca a8bd e560 de39 4082 05bd
000002d0: 4b62 e5bc d11d a03c 8bd6 35bd bd1e 023d
000002e0: d87a 8dbd 268f 173d 935e 47bc 0365 5cbb
000002f0: 5883 183d 4738 7dbc fa95 813d 79ba b6bc
00000300: 8028 c2bc 435f 433b 32d3 63bc bf48 70bd
00000310: 0763 803c 6357 ca3b 0769 cf3b 4799 9cbb
00000320: 8bde 3abd 629b 3abb b989 2d3d aa5e 8fbc
00000330: b996 173d de3b 30bc 1db3 39bc 8287 45bc
00000340: d52b 083c 9f08 393d 489c e5bd e1a4 b5bc
00000350: 34b4 203d 29d1 45bc 58a1 023d bb73 eebd
00000360: 0d19 243c 3134 4cbd 5f97 13bd a496 753a
00000370: 9f57 45bd 3c12 cfbc 86aa 11bc 7a5a a5bd
00000380: 3f7d 8fbc c150 1f3d b4e9 ca3c 3265 7a3c
00000390: bdc6 083d bfcf 1b3c 47ce fdbc 6880 3f3b
000003a0: 0cef 90bb 21e1 5ebb 7566 10bd cbfb 66bd
000003b0: 9796 373d ed72 023d 2081 213d f8e5 0cbd
000003c0: 88be 8dbd 3d0e 2dbd 01bf 093a af75 19bc
000003d0: e939 d93c 31a8 7bbd 69c8 28bd b13e 033d
000003e0: 1915 86bc 762f 66bc af96 d83c 5800 9abc
000003f0: 55ac a6bb 0921 38bd 3b45 71bb c92e 89bc
-0.033541713 -0.06621043 0.0041559744 -0.042420574 -0.016269684 -0.03078011 -0.044047814 -0.022945244
-0.021752205 0.015747957 -0.04066614 0.03741865 0.047789793 0.037681825 -0.02157351 0.0070028305
0.016530642 -0.020316433 -0.003035339 0.008464145 -0.014395 0.027735606 0.011063252 -0.008802348
0.03922623 0.008651001 0.066276066 -0.016605247 0.03263574 0.013509786 0.06735417 0.0431265
-0.0012157023 -0.005704401 -0.017034033 0.05891739 0.028189672 -0.017768797 -0.002483143 -0.06917463
-0.00026022043 -0.0248244 -0.05639298 0.032209523 -0.011370575 -0.013036967 -0.0047266996 0.010907026
0.055230696 0.0008861285 0.060731255 0.011762673 -0.012916973 0.024730172 -0.021230219 -0.027398972
0.016425448 -0.0036269885 -0.02815098 -0.056254942 -0.04221445 0.0051261084 0.014015858 -0.012064425
-0.047087528 -0.04173569 -0.02471595 0.03840852 0.022803912 -0.08683947 -0.0030922315 0.013134097
0.0057407757 0.032664757 -0.03363078 -0.014631683 0.008163763 -0.012316423 -0.07965128 -0.004409953
0.08470548 0.020027105 -0.048328858 -0.016271617 -0.04218983 0.09765344 0.008400522 -0.03818391
-0.062380914 -0.0012030568 0.0250009 -0.05820222 0.058209367 -0.043894265 -0.070367336 -0.0116077745
-0.016562989 0.02433396 -0.022047028 -0.010573018 0.005174339 -0.022809649 -0.034534186 0.06464737
-0.004443242 0.041113064 -0.021131214 0.010252206 0.019544316 0.025150789 0.036965854 0.024972778
-0.023255209 0.007829531 0.0012022263 0.058358185 -0.023066716 -0.014871829 -0.052544616 -0.00090722815
0.102164835 0.0031898017 -0.022894617 -0.009696668 -0.002518291 -0.039324317 0.040128738 -0.02138391
-0.008257815 -0.02091509 -0.016314508 0.03107634 0.009177914 0.010657366 -0.0006192776 0.0012279628
0.03465977 0.02476197 0.022028415 -0.046363026 -0.0049368865 0.004424981 -0.0045951493 -0.022458619
-0.06093286 0.026203815 -0.016955024 -0.021955816 -0.06410464 -0.025670933 0.019279465 -0.012881974
0.012288275 0.0019516426 -0.008258183 0.021645356 -0.0775855 -0.02094769 0.0017374887 0.0033416324
0.053166408 2.0320383e-06 0.00091565505 -0.031412993 -0.048791837 -0.032845832 -0.007999293 0.0014181857
0.01430896 0.0071312115 0.014041355 -0.015776344 0.007963519 -0.041251753 0.030831113 -0.023563359
-0.03638476 -0.08241686 0.00042415332 -0.03259492 -0.028000971 0.019545468 -0.044394057 0.031767596
-0.06908196 0.03700175 -0.012168544 -0.0033629544 0.037234634 -0.015455312 0.06327434 -0.022305714
-0.023700953 0.002981142 -0.013905333 -0.058663126 0.01567222 0.006174968 0.006329659 -0.0047790143
-0.04562239 -0.0028473963 0.04236767 -0.017501194 0.037008975 -0.010756461 -0.011334208 -0.012056233
0.008311232 0.045174237 -0.11211449 -0.022173347 0.039234355 -0.012073793 0.03189215 -0.116431676
0.010015738 -0.04985446 -0.03603303 0.00093684555 -0.048179265 -0.02527725 -0.008890754 -0.08073898
-0.017515777 0.038895372 0.024769641 0.015282916 0.033392657 0.00950998 -0.03098215 0.0029220823
-0.004423028 -0.00340087 -0.03525396 -0.056392472 0.044821348 0.031847883 0.039429784 -0.034399003
-0.069211066 -0.042249907 0.0005254597 -0.009366437 0.026516872 -0.061439697 -0.04120675 0.03204221
-0.016367482 -0.0140494015 0.026439039 -0.018798992 -0.0050864615 -0.04495338 -0.0036814946 -0.016745942

bias f4 [120]
00000000: e4fc 823b d25e 87b9 3912 03bb 3b58 db3a
00000010: 4532 69ba 8e1e 90ba f6ee 4f39 4d12 40bb
00000020: eda1 cdbb 3f95 283a 058f e7ba 6417 8abb
00000030: 1991 ae3b b67b cc3b f363 963b a847 dbba
00000040: ce11 97bb fad0 89bb 2359 a03b e5ac 453b
00000050: e2d9 b2ba d285 b3ba 6b8d f83a b543 173c
00000060: c4e1 42bb 079f d0ba 529b 5439 afb3 963b
00000070: 6e32 fcb9 8156 b6ba c4ab fbba dbcc 64ba
00000080: 404a 173c 6e9c 893b 146a 3f39 c58b a4ba
00000090: 0c67 933a 9556 8fba f6d9 973b eb9f 69bb
000000a0: 7c95 70bb a79b fd38 6bfa 083b 136f 563b
000000b0: 8e27 d63b 3112 473a 1820 0f3b 1a11 9d3a
000000c0: 6330 b9bb 7874 193b 400f 633c b0ea 8aba
000000d0: c1a9 243b 5bb6 b23b aca0 f63a 98ee f039
000000e0: 02e0 c239 23ea b638 57ee 443b 6f38 123a
000000f0: 2010 6cbb 27ca 25bb abb7 24bb 45a3 4cbc
00000100: b630 02bc 7318 23bc ed5f a43b ed0c fe3a
00000110: 2746 0cbc 0881 853a 087e 9fbb 4d6a eabb
00000120: 4d5e be3a 54be 813b e5dc daba 08a1 073b
00000130: e68e 4a3b cac7 71ba e7a3 25bb c00f 283b
00000140: f2e6 3d3b d769 9b3a b669 8c3b ca61 22bb
00000150: dace e73b cba9 04ba c4aa 1dbb d01d 1bbb
00000160: 4143 4b39 dc66 e1ba d8e6 303a 383d 6bba
00000170: 1309 e0ba 6cef da3a 66d3 a83b 3843 7039
00000180: 3f6c 743b 8a22 ddba ac33 81bb 28ac 9fba
00000190: 9efc d4ba 3458 bcbb 0b4c be3a 3a44 273b
000001a0: dab1 fdb9 6aa9 33bc d6a7 4a3b 2b29 303b
000001b0: e75d 1c3a d717 513b 72ca bf37 0f65 7cba
000001c0: 4d41 84bb e329 c53b c5d3 ff3b fb10 64bb
000001d0: 5308 ee3a f96e 963b 509d 0f3a da42 b5bb
0.003997432 -0.00025819853 -0.0019999875 0.0016734669 -0.00088957354 -0.0010995434 0.00019830078 -0.0029307783
-0.0062754066 0.0006430931 -0.0017666525 -0.004214214 0.0053273556 0.0062403334 0.0045895516 -0.0016729729
-0.004610277 -0.00420582 0.0048934384 0.0030162868 -0.0013645256 -0.0013696498 0.0018963044 0.009232451
-0.0029736618 -0.0015916534 0.00020275757 0.0045990567 -0.0004810276 -0.0013911278 -0.001920097 -0.00087280356
0.009234011 0.004199556 0.00018254697 -0.0012553862 0.001124592 -0.0010935838 0.0046341373 -0.0035648297
-0.0036710193 0.000120929726 0.0020901214 0.0032720014 0.006535477 0.0007593958 0.0021839198 0.0011983246
-0.00565152 0.0023415368 0.013858616 -0.0010598507 0.0025125595 0.0054538674 0.0018816194 0.00045954133
0.00037169462 8.722048e-05 0.0030049288 0.0005577867 -0.0036020353 -0.0025297494 -0.0025133889 -0.012490098
-0.007946184 -0.00995456 0.005016318 0.0019382514 -0.0085616475 0.0010185549 -0.004867319 -0.0071537853
0.0014523953 0.0039594565 -0.0016697912 0.0020695347 0.0030907928 -0.00092231913 -0.0025274695 0.0025644153
0.0028976765 0.0011857104 0.0042850627 -0.0024777525 0.007074219 -0.00050607015 -0.0024058083 -0.0023668893
0.00019384643 -0.0017196792 0.00067482656 -0.0008973661 -0.0017092548 0.0016703433 0.005152154 0.00022913225
0.0037295965 -0.0016871255 -0.0039429273 -0.0012182044 -0.0016249602 -0.0057478193 0.0014518512 0.0025522844
-0.0004838843 -0.010965684 0.0030922792 0.0026880007 0.000596492 0.0031905079 2.2863245e-05 -0.0009628096
-0.004036105 0.006016956 0.0078072273 -0.003480016 0.001816044 0.0045908657 0.00054784585 -0.005531651

weight f4 [120]
00000000: c651 833f cfb7 7e3f 5f33 7e3f b928 793f
00000010: 5762 873f b1de 7d3f fd07 813f a160 803f
00000020: 9598 7f3f d9a1 803f d4f0 7a3f cba3 813f
00000030: bdbb 7d3f 5610 7f3f a57a 803f c4f2 7c3f
00000040: 0373 803f 9ae7 853f e119 813f 1495 833f
00000050: 3f91 823f 5a49 843f 27ac 7d3f ea45 823f
00000060: 22c3 7e3f fe7e 883f 74b2 7e3f eb8d 8a3f
00000070: 5365 813f e4a6 813f f93d 853f 4454 7c3f
00000080: 4686 7d3f 4511 853f c76c 7e3f 8c26 853f
00000090: 50f9 813f 2b7b 843f 6d27 803f d0a7 7a3f
000000a0: 73a9 7e3f 8da6 7f3f a884 7d3f e0de 783f
000000b0: 5014 833f 6251 733f 6a49 7e3f 3d89 803f
000000c0: 95d3 823f 011c 833f 70e2 7e3f 347c 823f
000000d0: da39 803f 8e6e 833f 5afe 7c3f 63aa 813f
000000e0: b213 883f 860f 793f d922 803f 03e8 7e3f
000000f0: c537 833f 8bc7 823f 692b 843f 2dc6 863f
00000100: 462d 7f3f 9b41 823f 55ab 803f bd59 813f
00000110: 87a8 7d3f 0d8a 7d3f 3ab9 823f 1146 7f3f
00000120: 36a3 793f 65ca 813f ea7f 793f 98d9 7f3f
00000130: 9755 843f fdf2 803f 2cb7 823f c046 783f
00000140: e262 813f 438b 7b3f ecf7 833f f4cf 7a3f
00000150: 1a87 813f 3a7a 743f def6 813f 0298 843f
00000160: ca3e 813f ee6f 813f f55b 7c3f 5f29 843f
00000170: 59a3 7e3f d44b 813f b602 813f 7441 7b3f
00000180: 1fc3 803f 52b4 803f f5cb 7e3f becc 803f
00000190: 66b8 793f bcf1 803f 190f 7d3f e2f8 813f
000001a0: 275d 843f f464 803f 3027 7c3f 3614 803f
000001b0: b05f 7d3f 6c3f 833f 5442 803f 0aef 873f
000001c0: 213c 873f edac 7c3f 2fe4 7f3f 535b 863f
000001d0: 1c6b 803f 457b 843f a06e 7b3f 8e31 7e3f
1.025933 0.9949922 0.99297136 0.9732776 1.0576886 0.99167925 1.0080563 1.0029489
0.99842197 1.0049392 0.98023725 1.0128111 0.9911459 0.996343 1.0037428 0.9880793
1.0035099 1.0461304 1.0086023 1.027987 1.0200576 1.0334885 0.9909081 1.0177586
0.995165 1.0663755 0.9949105 1.082456 1.0109047 1.0129056 1.0409538 0.9856608
0.9903301 1.0395895 0.9938473 1.0402389 1.0154209 1.0350088 1.0012032 0.9791231
0.9947731 0.9986351 0.9903054 0.9721508 1.0240574 0.95046055 0.9933077 1.0041882
1.022082 1.0242921 0.99564266 1.0194154 1.0017655 1.0268114 0.9882561 1.0130123
1.063101 0.9728931 1.0010635 0.9957277 1.0251395 1.0217146 1.0325748 1.0529228
0.99678457 1.0176271 1.0052286 1.0105511 0.9908528 0.99038774 1.0212777 0.9971629
0.97514665 1.0139891 0.97460806 0.99941397 1.033862 1.0074154 1.021215 0.96982956
1.0108302 0.9825937 1.0310035 0.9797356 1.0119355 0.95499 1.0153463 1.0358889
1.0097287 1.0112283 0.98577815 1.0325125 0.99468 1.0101266 1.0078952 0.9814675
1.0059546 1.0055029 0.99529964 1.0062482 0.97546995 1.0073771 0.9885116 1.0154078
1.0340928 1.0030808 0.98497295 1.0006168 0.9897413 1.025373 1.0020242 1.0619824
1.0565225 0.98701364 0.99957556 1.049662 1.0032687 1.0350119 0.98215675 0.99294364

bias f4 [120]
00000000: d4ad bd3c f67b 8d3c 2a0a 7ebc 0b86 a1bc
00000010: a201 1ab9 183d b63c fee6 f1bc cafb 643c
00000020: cfb7 323c 2ed1 673c dcfb bfbc c6bd 2c3d
00000030: 461e f9bc a5ef 143c 4029 d7bc c8bf 6cbc
00000040: 7e73 ffbc 53c8 7fba 3faa c13b 8648 003d
00000050: 75d6 86bc 09f0 ba3c d749 36bd d011 473c
00000060: 42ff 213c e7e4 a93c 6ad9 61bd 2e36 713d
00000070: 09c9 363c f357 873c 9c45 15bc 3931 90bc
00000080: 02eb 2f3c cff6 6a3c 0640 38bc eed9 703d
00000090: 7b44 cebc 9d7d 113d 047a a3bc 5bb8 8fbc
000000a0: 376a 4cbc a26b bcbc 2855 58bc d5c6 b7bc
000000b0: d643 6a3a 9246 19bd a8e5 ac3b 0883 553c
000000c0: 5619 ce3b 8700 d6bc e219 69bc 5e28 e33c
000000d0: bfa8 a93c 3faf d9bc 9063 b1bb 9d44 493d
000000e0: 06b2 703d f4da d2bc 5c9a 1b3c 7e93 cbbc
000000f0: d4aa 493c 76d8 9e3b 8476 f73c 823b 153d
00000100: 64a2 823b aa42 7c3c eff9 ef3b 0077 233c
00000110: 27be c7ba 2f56 a1bb 80b7 6eba 1521 d0bb
00000120: fe74 27bc 04d0 9a3b 1296 71bc 1c21 57bc
00000130: 5294 c23c e974 25bb a5e8 72bc c7dc 82bd
00000140: 65c0 0b3d ad06 cdba 0e22 613c a0ad 59bc
00000150: de72 46bc 1041 24bd 7317 933c 6bfd 6c3d
00000160: fd6f 053c 4c10 a3bc d40c 2abd bc9b df3b
00000170: 9ead 07bd bf79 813b 1edb ddbb 93d9 abbc
00000180: 15aa 573c e87c 8abb 266c 063d a0ca 0a3c
00000190: 422b ed3b ec85 2ebc a809 6cbc dc77 bf3b
000001a0: a5aa 903c 6083 38bc c650 51bc e581 df3c
000001b0: 3ab0 8bbc a681 bd3b 1c5d 8a3c 2753 683d
000001c0: 8552 2e3d 3c5e 30bc 262e bc3c 3de6 4d3d
000001d0: 0175 b03c 3056 143d f5fe 15bd ba60 8abc
0.023154177 0.017271023 -0.015505353 -0.019717237 -0.00014687193 0.022245929 -0.029529091 0.013976047
0.010908081 0.014148993 -0.023435526 0.04217317 -0.030409943 0.009090339 -0.026264787 -0.014450021
-0.031183 -0.00097573287 0.0059101875 0.031319164 -0.016459683 0.022819536 -0.044504013 0.012150243
0.009887518 0.020739032 -0.055138983 0.05888956 0.011156329 0.01652143 -0.009110834 -0.017601596
0.010737183 0.01434107 -0.011245733 0.058801584 -0.025179138 0.035520185 -0.019955643 -0.017543962
-0.0124764955 -0.023000542 -0.013203897 -0.022433678 0.00089365 -0.037420817 0.0052764006 0.013031729
0.0062896414 -0.026123298 -0.014227362 0.02772921 0.020710347 -0.026572822 -0.00541348 0.0491377
0.058763526 -0.02573917 0.009497251 -0.024850603 0.012308795 0.0048475815 0.03020788 0.036433704
0.0039866436 0.015396753 0.0073234956 0.009977102 -0.0015239165 -0.004923604 -0.0009106323 -0.0063516
-0.010220764 0.0047245044 -0.014745252 -0.0131304525 0.023752365 -0.0025246686 -0.014825975 -0.06389766
0.03411903 -0.0015642248 0.013741029 -0.013286024 -0.012112347 -0.04010111 0.017955517 0.057858866
0.008144376 -0.019905232 -0.04151614 0.006823985 -0.03312456 0.003951281 -0.0067705056 -0.02097777
0.013163109 -0.0042263158 0.032817982 0.008471161 0.0072378227 -0.010652047 -0.014406599 0.005843146
0.017659495 -0.011261791 -0.012775606 0.027283618 -0.017051805 0.0057832776 0.016890101 0.056719925
0.042559166 -0.010764655 0.022971224 0.0502684 0.021540167 0.036215007 -0.0366201 -0.016891826

running_mean f4 [120]
00000000: b439 72bf a145 07bf d79e 91bf 99c3 083f
00000010: 8f23 9e3e 37bc 99be c519 193f 7076 ddbc
00000020: 7e2b 38be 7715 cbbe acae 443f 80ba 13bf
00000030: 17b8 4f3f 9b84 95be bae5 a4be 509a 153d
00000040: 029c 0fbc 53c2 e53e bd9e 033e 96a1 aebe
00000050: 10db 62bf 09b8 e23e 409a 2bbf d569 6a3f
00000060: b254 86bf 3198 623f d9c9 2e3f d536 383e
00000070: 74ad 40be 142f 68bf fa7c b8bd e0cb 3f3f
00000080: 62c8 b3be b098 05bd dbd0 2dbe dbf0 b0be
00000090: b450 f43e 5cdc 06be 3a4c d6be d96e 9cbf
000000a0: 99e4 22bf cfe8 0abf e685 2bbe 06d8 0dbe
000000b0: 4007 36bf 3036 42bf ea2f 63bf 16f3 8cbd
000000c0: acad eebd cc6c bf3d b976 8cbf b133 aa3e
000000d0: 6054 5f3f 2888 13bf b2ba 863e ab8a 78bf
000000e0: 7d33 793e 3b6e b93e 4955 ed3e 0386 fdbe
000000f0: 3330 253f a6e6 aabe 3c0d 60be d06b 1e3e
00000100: e62a 1abe 24f7 a93e 0835 6ebf 86a3 b6bd
00000110: f5a4 97bc 0d7d 94bd 4943 423d 0a3e 2abe
00000120: f4ae 643e 39c0 1abd bba7 c03b c054 013f
00000130: d293 86bf 84a3 88be 4ad0 373e 4d85 943d
00000140: ea05 c73e 6b33 e6bc 7782 653e 6653 47be
00000150: 9dc8 993d 3709 e0be a781 d3be d775 fbbe
00000160: 7602 cf3e 8063 24bf c7a2 3dbe 4931 31bf
00000170: b371 03bf 27cc e43b f57f 1dbf f545 f3bd
00000180: 976d 1e3e e1e0 4b3e 3d5a 9fbf 9ad3 2b3f
00000190: d350 903f 59eb 66bd bd81 083f 5f9d 12bf
000001a0: 5698 98be 4bbc d2bf eec6 8a3e 8faa 3cbf
000001b0: 0c27 8f3e 7238 98be cbcf 85bf f161 07bf
000001c0: 7b11 f2be 1dae 61bf b540 febe bc48 79bc
000001d0: 21ab c33e c7ff 44bd 2a7a e1bd fce1 0bbf
-0.946193 -0.5284062 -1.1376599 0.5342346 0.30886504 -0.3002641 0.59804946 -0.027034014
-0.17985341 -0.39664814 0.7682903 -0.5770645 0.81140274 -0.29202732 -0.32206517 0.036524117
-0.0087652225 0.4487482 0.12853523 -0.34107655 -0.8861551 0.44281033 -0.6703224 0.91567737
-1.0494597 0.88513476 0.68276745 0.17989667 -0.18816167 -0.90696836 -0.090082124 0.74920464
-0.35113817 -0.032616317 -0.16974203 -0.34558758 0.47717822 -0.13169998 -0.4185503 -1.2221328
-0.6363006 -0.5426149 -0.16750297 -0.13851938 -0.7110481 -0.75863934 -0.88744986 -0.068823025
-0.11654219 0.09346923 -1.0973731 0.33242562 0.8723812 -0.5762963 0.26314312 -0.9708659
0.24336047 0.36216912 0.4635413 -0.49516305 0.6452667 -0.33379096 -0.21880049 0.15470815
-0.15055427 0.33196366 -0.9304967 -0.08917908 -0.018511275 -0.07250414 0.04742745 -0.16625229
0.22332364 -0.037780974 0.00587937 0.50519943 -1.0513861 -0.26687253 0.1795055 0.072519876
0.388717 -0.02810069 0.2241305 -0.19465408 0.07508967 -0.4375703 -0.41309854 -0.49113342
0.40431565 -0.64214325 -0.18519126 -0.6921583 -0.51345366 0.0069823447 -0.6152337 -0.118785776
0.15471493 0.19910003 -1.2449414 0.67119753 1.1274666 -0.05637679 0.53322965 -0.5727138
-0.29803723 -1.6463712 0.27104896 -0.7369775 0.27959478 -0.29730564 -1.0454038 -0.5288382
-0.47278962 -0.881563 -0.49658743 -0.015215095 0.38216498 -0.04809549 -0.11009629 -0.546417

running_var f4 [120]
00000000: 5c09 6a3e 96e0 cc3e 561e e73e 296a 693e
00000010: 7032 c63e 6d3e c93e 8b47 6e3e 0ebd 813e
00000020: a08b 2d3e 823c 593e b4cc bb3e ae96 f13e
00000030: d843 333e f036 bb3e 94d1 113e 274c 203f
00000040: 3c4f f93e 5c96 af3e f474 cb3e 20bd 853e
00000050: b3df a73e 5792 d73e 2ebe ec3e d674 653e
00000060: dfbe 173f ac82 883e 8b04 6b3e cf3e 143e
00000070: c8fd b63e c7b1 533e 7f5a 943e 2f4e f43e
00000080: 74f4 b03e b270 803e ac07 0c3e 5cd6 883e
00000090: fdef 493e 5b04 133e 4869 203e 1ae8 d13e
000000a0: ccdf 913e 73c3 9b3e 46e3 9c3e b419 ab3e
000000b0: ae1c 823e fc7e f43e cd9f 613e 2834 063f
000000c0: 495b 5b3e 83e0 473e 6f3f 803e 0c09 673e
000000d0: 0a55 d33e 23fb 653e fd94 663e 4d1c a83e
000000e0: 2c38 9b3e 4d81 d63e 35ec 873e 0602 b03e
000000f0: 9499 943e 478d 6d3e d3d3 943e fca1 fb3d
00000100: 3d9a 4e3e 3ae1 4a3e c8c2 963e c8b4 373e
00000110: ee02 793e 877c cd3e ea82 d23e 1d9e 933e
00000120: 89ca b43e 2a1c 233e 13d2 503e 5579 803e
00000130: 09de 353f cc84 6e3e 812a ac3e 7618 5d3e
00000140: aa93 8b3e 2ed3 993e 9da1 f03e fbde ac3e
00000150: 6643 593e 6e1d e43d d90f 083e e2ee 743e
00000160: e03f 123e 741e 143e 46f7 8c3e fb3c a33e
00000170: 4eed 503e f51f 693e 389d 083f 6e2f 6a3e
00000180: 3e81 683e d1eb 093f dc52 ef3e 3d6c 873e
00000190: 8e0e 773e a00c 883e 5b21 773e 2352 933e
000001a0: 7d18 c03e 0e28 ae3e 7ba9 413e bcde be3e
000001b0: 8a0e eb3e 5d27 863e a631 053f f61b b63e
000001c0: 219c 873e eb45 df3e 31f5 bb3e 659b c03e
000001d0: c38a 373f f006 543e 116c 063e 9258 813e
0.22855133 0.40015095 0.45140332 0.22794403 0.38710356 0.3930544 0.23269479 0.2533955
0.16947794 0.21214488 0.36679614 0.47185272 0.17506349 0.3656535 0.14240104 0.626162
0.48693264 0.34294403 0.39737666 0.26120853 0.32787856 0.42103836 0.46238846 0.2240785
0.5927562 0.26662195 0.22950952 0.14477085 0.35740495 0.20673285 0.28975293 0.477159
0.34561503 0.2508598 0.13674802 0.26726043 0.19720455 0.1435713 0.15665162 0.40997392
0.28491056 0.30422553 0.30642146 0.33418047 0.25412506 0.4775313 0.22033615 0.52423334
0.21421541 0.19519238 0.25048396 0.22562045 0.41275817 0.22459082 0.22517772 0.32834092
0.30316293 0.41895524 0.265474 0.34376544 0.2902342 0.23198424 0.2906786 0.122867554
0.20176025 0.1981248 0.2944548 0.17940056 0.24317524 0.4013407 0.41115505 0.28831568
0.35310772 0.15928712 0.20392637 0.2509257 0.71041924 0.23292845 0.33626178 0.21591362
0.27261096 0.3004393 0.469983 0.3376387 0.21217117 0.11138426 0.13287295 0.23919252
0.14282179 0.14464742 0.27532405 0.31882462 0.20403025 0.22766097 0.53364897 0.22869655
0.22705552 0.5387545 0.46742904 0.26449767 0.24126646 0.26572132 0.24133818 0.28773603
0.37518683 0.34014934 0.18912308 0.37279308 0.4590953 0.26201907 0.5202888 0.35568208
0.26486304 0.4360803 0.36710504 0.37618557 0.7169611 0.20705771 0.13127162 0.25262886

weight f4 [84, 120]
00000000: 00bb 30bd 11bb 1fbe 6c86 b9bd eac8 7d3b
00000010: 9246 84bd a1d6 79bd bb0d 6d3c b86a 0f3e
00000020: a402 443e c515 363e 5a5b 143e 7fa8 02be
00000030: e893 1abe 992b ac3b 9f03 27be e652 1fbc
00000040: 9d43 96bd 7bd6 d9bd 0838 e43b 36e9 493e
00000050: fbc3 cdbd b88f 82ba 1a19 733d 3a19 103e
00000060: 141f 17bd 4eed 283e fc8d 2bbe d494 a6bc
00000070: b397 23be 2a09 5ebc 2ab4 8b3e 9fea 1bbd
00000080: f397 203e 1546 803d 8b10 483d 1435 a9bd
00000090: 047f 1e3e 4f49 bc3d 09a8 083e 94b8 483d
000000a0: 240a 8b3d 6e13 ebbd f1ac 433e f8fb fdbc
000000b0: 779f 073e fb8d 2f3e bb28 83bc b6dc 813d
000000c0: dd44 0b3e 88d4 12be fa70 38be d46f a73d
000000d0: cc9b 80bd 0248 3b3c e6d2 1c3e d6bd b5bd
000000e0: 7550 21bd e24b ebbd ffb6 903d fb6b e93d
000000f0: 636b 2cbc 841c f3bd 8891 26be 8179 fd3d
00000100: 058a 5f3d b75a 16be 6b98 dbbc 521c 133d
00000110: 1584 ab3c fdf5 223e 73b1 363e 4547 e7bd
00000120: ae25 40bd 769e 393e de55 e5bd fbe7 c53d
00000130: 54be ba3d 0b5c 9fbd ed7f 253e 49a8 9abc
00000140: 6558 ac3d daef 5fbc c56e e33d 5991 1ebe
00000150: 3362 3ebe 4b96 353e 9191 ccba 6eee ac3d
00000160: d203 cfbd c90c f2bd 94e7 443d 680a 44be
00000170: 0482 45be b965 4a3e 77cc 4dbe f405 15be
00000180: 44b0 ccbd dcc8 2d3e 078e 00be ff79 1c3e
00000190: c3c9 c63c 7221 a53d 3b92 8a3d 6bcc f4bc
000001a0: 214e a0bd 56e2 18be 3453 febd bf36 88bd
000001b0: 89d6 b73d 41e4 dabd 7cdf 953d c387 9fbd
000001c0: f075 19be 483d babc 2b55 b63c 4c42 823d
000001d0: 498d 673c 115b 11bd f013 18be 281f b93c
000001e0: 4cb0 f63a 2b04 9d3d 2e86 dd3c 6a4f 14be
000001f0: b9a7 1bbd 0318 053d f864 2fbe c916 ba3d
00000200: 7af4 36bc 6a17 103e 030e 0a3e d837 8a3d
00000210: 433a 3abe c48d 073e e8d0 9b3b 4c0e 51bd
00000220: 7a4f 55bd 21ff 46bd c025 b1bd a776 773d
00000230: 12e0 12bd ce4b cb3c b25b eebd c6ea 953c
00000240: 9067 1c3e 4b30 f9bd bf70 a33d bcb3 ef3d
00000250: 626a 4dbd 1a05 56bd 67c1 603d 5b56 ad3d
00000260: 8458 c7bd c7a0 b23d 170f f33c 0cb7 2e3e
00000270: 41d4 07bd 20b1 c3bd bda9 5b3d f194 f6bd
00000280: 7849 193e 5525 afbc eaf1 17be faf6 cd3d
00000290: 0d66 13be eb3c 87bd 8165 0dbe c4c2 063e
000002a0: a97b 3c3e e6ed 7dbd 678b 59bd e6a7 a0bd
000002b0: a779 01bd f972 eaba 0513 623d 28f0 e53c
000002c0: 2eef 193d 1b58 fc3d 2db3 d1bd 7626 623c
000002d0: dab5 1cbe 7738 bdbb a5dd 393e c5e7 353e
000002e0: 7438 c03d d3de 29bd ee46 33be e1d1 e7bd
000002f0: e80e b5bd 7c51 033e 2d21 2b3d 2de6 a03c
00000300: 0556 1abd d657 fe3d cd32 073e 4bb9 1abe
00000310: f1a6 07bd 3a75 99bd 94a8 4bbd 9e40 1ebc
00000320: 7308 c43c c119 2abd 6c65 a6bd 1d74 023e
00000330: e8a9 01bd 0bfc cabd 1737 c5bd 8ea5 d53d
00000340: b82c 163e 61c6 283c 0be4 033e f89e 0dbe
00000350: 191a 1abe c4bc c3bc fbee e3b9 7331 203e
00000360: ace7 0fbd ca5a 673d 4b91 67bd 581e 013d
00000370: b59d 80bd 8caf 43bd e1c1 8e3d a6ca 3d3e
00000380: 0475 27be 2324 eabd c87d 22be 1ef4 8e3d
00000390: 9b82 32be 28dd c8bd 3e82 aabc 4ebb 9c3d
000003a0: c11f 1dbd e50d a63d 2fe9 58bd e33a d33b
000003b0: dbb1 bebd 0435 023e 9a4d f8bd 4105 03be
000003c0: ac5f 613b b943 433d 0f01 903d db60 d8bd
000003d0: f81c e33d 8f9b 0e3c 62f5 ce3d 4325 eb3d
000003e0: 21c7 fc3d 9618 bd3c dc00 44bd 5157 8f3d
000003f0: 22d6 edbd c667 0f3e cd41 a1bd 0fc2 813d
-0.043147087 -0.15598704 -0.09058842 0.003872449 -0.06458773 -0.0609957 0.014468606 0.14005554
0.19141632 0.17781742 0.14487973 -0.12759589 -0.15095484 0.0052542207 -0.16309975 -0.009724354
-0.07337115 -0.10636612 0.0069646873 0.19717869 -0.10047146 -0.0009961044 0.05935011 0.14072123
-0.036894873 0.16496775 -0.16753381 -0.020334639 -0.15975837 -0.01355199 0.27285892 -0.03806555
0.15682964 0.06263367 0.0488439 -0.08262077 0.1547814 0.0919367 0.1334535 0.049004152
0.067890435 -0.11478315 0.1910894 -0.031003937 0.13244425 0.17144005 -0.016010633 0.063409254
0.13600488 -0.14338887 -0.18011847 0.081756264 -0.06279716 0.011430742 0.15314826 -0.08874099
-0.03938337 -0.11489083 0.07066154 0.11397549 -0.01052365 -0.11870673 -0.16266453 0.12376691
0.054574985 -0.14683042 -0.026806077 0.03591568 0.020937005 0.1591415 0.17841129 -0.112928905
-0.046910934 0.18126854 -0.111980185 0.096633874 0.091183335 -0.07781228 0.16162081 -0.018879073
0.084152974 -0.013668025 0.11105112 -0.15485133 -0.18592148 0.17733113 -0.0015607347 0.08443914
-0.101081505 -0.11818845 0.048072413 -0.19144595 -0.19287878 0.19765367 -0.20097528 -0.14553052
-0.099945575 0.16971153 -0.12554179 0.15280913 0.02426613 0.0806302 0.067661725 -0.02988263
-0.07827402 -0.1493009 -0.124182135 -0.06651067 0.08976466 -0.10688067 0.07318017 -0.07789566
-0.14986396 -0.0227343 0.022257408 0.063603014 0.014132806 -0.03548724 -0.14851356 0.022597864
0.0018820851 0.076668106 0.02704152 -0.14483419 -0.03800175 0.032493602 -0.1712836 0.09086377
-0.011166686 0.14071432 0.13481908 0.067489326 -0.18186288 0.13237673 0.004755128 -0.051039025
-0.052077748 -0.048583154 -0.08649778 0.06041589 -0.03585822 0.02481642 -0.11638583 0.018300425
0.15273881 -0.12167414 0.07980489 0.117042035 -0.050150283 -0.05225096 0.054871943 0.084637366
-0.0973368 0.08722072 0.029670281 0.17062014 -0.033161405 -0.09555268 0.053628672 -0.12040127
0.14969432 -0.021380106 -0.14838377 0.10056873 -0.14394398 -0.06603416 -0.13808252 0.13160235
0.18406548 -0.061994456 -0.05311146 -0.07844524 -0.031610157 -0.0017887048 0.05519392 0.028068617
0.037581615 0.12321492 -0.10239253 0.013803115 -0.15303746 -0.0057745534 0.18150957 0.17764194
0.093857676 -0.041472267 -0.17507526 -0.11319328 -0.08840734 0.12824053 0.041779686 0.019641006
-0.03767969 0.12419097 0.13202973 -0.15109746 -0.033118192 -0.07493062 -0.049721316 -0.009658961
0.02392981 -0.041528467 -0.081248134 0.12739606 -0.031656176 -0.09911355 -0.09629648 0.10431968
0.14665496 0.0103012035 0.1287996 -0.13830173 -0.15049018 -0.023893721 -0.00043474868 0.15643863
-0.03513305 0.056483068 -0.056535047 0.03152308 -0.0628008 -0.047774836 0.06970573 0.18534335
-0.16353232 -0.11432674 -0.15868294 0.069801554 -0.17432635 -0.09807807 -0.020814057 0.07652913
-0.03836036 0.08108119 -0.052956756 0.006446229 -0.09311267 0.12715536 -0.12124176 -0.12794973
0.00343893 0.047672007 0.07031452 -0.10565349 0.1108951 0.00870408 0.10105397 0.114817165
0.12342668 0.023083013 -0.047852382 0.06999076 -0.11613108 0.1400443 -0.07873879 0.06335842

bias f4 [84]
00000000: 905d 103d e257 953c e187 efbb ec2f 49bc
00000010: a684 a0bc 6ecf 15bb 8d82 4fbb a77d a2bc
00000020: 1c9d 023d fd0a 5c3c f104 963c bc78 07bc
00000030: 0483 bf3c 46ee 9d3c 3c40 73bc c5ac 953c
00000040: 6476 66bc 2b58 523b 131f 473c 3997 253b
00000050: 085c ce3c 7968 623c 616e 463c 74f8 643b
00000060: 781a 8fbb 9609 10bc 18ff 273b f722 0d3d
00000070: 0676 aebc 199c 1c3b 1ddf 9f3c a484 8b3c
00000080: 574b f73c 290a f9bb adff cd3b 6786 013d
00000090: 51e0 d1bb 8203 3c3c 955f 1bba a919 fdbb
000000a0: bd01 c73b a096 223c ed9f 363b d2ba 11bc
000000b0: c604 b6bb 2721 603c 37b9 ad3b d4b4 4cbc
000000c0: 59cd e9bb 2d47 7538 5e2e 763b 5d1a 4b3b
000000d0: e723 d5bb 1f3d bbbc 5d0a 7f3b 0689 b93b
000000e0: f821 bcbb 9c12 aab9 4e00 593c 4012 ad3c
000000f0: bed5 5d3c 678c 823c fc1a b53b c8cd 1fbc
00000100: a166 023b 3afb b33c 0314 d93c d9f4 bc3b
00000110: 2e15 cbbb cc36 d73c 7e4b 93bb 8726 193c
00000120: b982 94bb 9ad9 bc3b e990 233c 1abf 8a3c
00000130: 6b51 5f3b 7e85 97bc 2f79 3b3c 3db4 0d3b
00000140: 8b4c 133c 6bdb aebc f746 8c39 8dbf 9a3c
0.03524548 0.018230382 -0.007309899 -0.012279492 -0.019594502 -0.0022859233 -0.0031663508 -0.019835306
0.031888112 0.013430354 0.018312903 -0.008268531 0.023377903 0.019278657 -0.014846858 0.01827086
-0.014066312 0.003209601 0.012153405 0.0025267138 0.025190368 0.013818854 0.012111277 0.0034938129
-0.004367169 -0.008791348 0.0025634225 0.034457173 -0.021296512 0.0023896752 0.019515568 0.017031021
0.030187292 -0.007600088 0.0062865824 0.031622317 -0.0064049144 0.011475446 -0.00059270236 -0.007724006
0.0060732053 0.009923607 0.002786632 -0.008894639 -0.0055547683 0.013679779 0.0053016203 -0.012494285
-0.007135075 5.847884e-05 0.0037564258 0.0030991056 -0.006504524 -0.022856293 0.003891609 0.0056620864
-0.005741354 -0.00032438792 0.013244702 0.021126866 0.01353973 0.01593609 0.0055268984 -0.009753652
0.0019897597 0.02197038 0.0264988 0.005766493 -0.006197593 0.026271246 -0.0044950834 0.009347565
-0.004532185 0.005763245 0.00998328 0.016936827 0.0034075629 -0.018496271 0.011442467 0.0021622323
0.008990417 -0.021344861 0.00026755754 0.018890167
