garment_classification/model/footwear.pt (torch, 277083 bytes, 22 tensors)

weight f4 [6, 3, 5, 5]
000000 d3 59 be 3d 61 66 10 3e e2 28 0d 3e 8c e7 16 be
       0.09294476 0.14101554 0.13785127 -0.14736766
000010 ea d6 04 be 4e f6 12 be b2 df 02 3e 37 75 68 bd
       -0.12972608 -0.1435177 0.12780645 -0.05675241
000020 c4 cf 25 be 41 13 ad bd 08 cd e5 bd af 4f 24 3d
       -0.16192538 -0.08450938 -0.11220747 0.040115055
000030 19 fc 64 3d f0 a0 e2 bd cb 43 b2 3d 84 94 0c be
       0.05590448 -0.11065853 0.08704337 -0.13728529
000040 14 71 99 3d 3b 4f 59 bd 6e 5e 4e 3d 82 a9 ad 3d
       0.07492271 -0.053054076 0.050383024 0.08479597
000050 fa 9d ba bd 6b 63 22 be 5b e3 d4 3d 12 99 42 be
       -0.09112163 -0.15858237 0.10394927 -0.19003704
000060 97 11 08 3e 87 0d f9 3a 43 a0 03 be da a9 a5 bd
       0.1328796 0.0019001224 -0.12854104 -0.08089037
000070 18 59 51 bd 74 a9 3c bd b4 61 a8 3d 21 cc 2d 3d
       -0.051110357 -0.04606004 0.082217604 0.042431
000080 ee 01 0e be 72 9e 36 bd b4 ec e2 3d eb 89 e2 3d
       -0.13867924 -0.0445847 0.11080304 0.11061462
000090 a6 14 9f 3c c3 93 3f 3e 5b 33 ea bd 70 7a f9 bd
       0.019419026 0.1870871 -0.114355765 -0.12181556
0000a0 e8 0e 1b 3e 38 2f fd 3d cd dc 16 3e a9 2a 2d be
       0.15142405 0.12362522 0.14732666 -0.16910805
0000b0 db 59 22 3e 22 07 1a be e8 bb 1a be f7 05 c7 bb
       0.1585459 -0.15041783 -0.15110743 -0.006073709
0000c0 ea 2e aa bd dd d3 1a 3d 64 c3 b9 bd 47 f7 be 3d
       -0.083097294 0.037799705 -0.09070471 0.09324508
0000d0 00 5e 69 ba 4e 22 81 3d 89 f4 dd 3d 3a aa 0d 3e
       -0.0008902252 0.06305371 0.10837657 0.13834468
0000e0 a8 30 12 3e 57 b3 cf bd bf 55 b2 bd de f9 96 bd
       0.14276373 -0.10141628 -0.08707761 -0.07371877
0000f0 53 eb 03 3c 28 a2 3b 3e 7b 57 1d 3e 46 c5 30 bc
       0.008051711 0.18323576 0.15365402 -0.010789221
000100 b4 98 07 3e 0f 97 94 3d bf 4e ed 3d 24 0d 74 bd
       0.13241845 0.07255375 0.11587285 -0.059582844
000110 6a 71 d8 bd 9b d0 ce bd d8 65 b8 3d 27 9f 19 3d
       -0.10568507 -0.10098382 0.090038 0.037505295
000120 a2 1b 2b be 15 40 fd bc 85 87 e8 3d 61 d0 b5 3d
       -0.1670976 -0.030914346 0.11353973 0.08877636
000130 fd c8 7d 3c bc c0 d0 3d a5 63 fd bd 8d 45 9a 3d
       0.015489814 0.10193011 -0.12372521 0.07532797
000140 18 65 8e bc f4 ff 89 bc 20 0c 8e bd b9 fb 56 bd
       -0.01738219 -0.01684568 -0.069359064 -0.052486155
000150 f0 39 f0 3d 6a 5a 0b be 34 b6 01 be 6f d5 06 3c
       0.11729801 -0.13608709 -0.12667161 0.0082295975
000160 49 48 0d 3e 5f 00 13 be 57 b2 f4 3d ae 87 25 be
       0.13797106 -0.1435561 0.11948078 -0.16165039
000170 c3 5a 1a be b7 b8 3e be 68 6d f9 3c d3 cb 13 3e
       -0.15073685 -0.1862515 0.030447677 0.14433222
000180 36 d5 b7 bd fd 00 21 3d c7 6e da 3c 78 15 12 3e
       -0.08976214 0.039307583 0.02666415 0.14266002
000190 c9 45 e1 3d 98 fa 11 be 86 a0 62 3d e2 4e cf bc
       0.109996386 -0.1425575 0.05532887 -0.025306169
0001a0 39 85 24 3c b4 dd 6d 3d 5d 71 de 3d 9a 9f d0 bb
       0.010041528 0.05807276 0.10861466 -0.0063666822
0001b0 41 90 9d bd 7d 5c 98 3d 5c 56 1d 3d 63 52 c9 3d
       -0.0769353 0.07439516 0.038412437 0.09830167
0001c0 4b 70 13 be 80 5a c7 bd 47 42 93 bd 08 7a 98 bd
       -0.14398305 -0.097340584 -0.07190376 -0.074451506
0001d0 44 67 da bd 46 fd d6 bd 90 b8 ea bc 3d 66 bc bd
       -0.106642276 -0.10497527 -0.02865246 -0.09199188
0001e0 c4 98 c2 3d 5a 17 71 3d fd 4a 10 3e 5b a0 09 3d
       0.09501794 0.05886016 0.14091106 0.033600193
0001f0 2f 6b 31 bd 20 cf 89 bd 03 c9 3b 3d 02 da 00 be
       -0.04331511 -0.06728959 0.045845997 -0.12583163
000200 39 bc 32 bd 1b 5c d6 3d 07 b0 89 bd 20 32 ab bd
       -0.043636534 0.104667865 -0.06723028 -0.0835917
000210 e1 95 13 3e 00 e9 9e bb 26 54 3d 3e b5 5a 2b 3d
       0.14412643 -0.004849553 0.18489131 0.04183455
000220 cd 63 9b 3d 0f e2 4f be 3d 10 78 bd 83 96 cf 3c
       0.07587395 -0.20301078 -0.06056236 0.025340324
000230 62 14 4c 3d 8a f8 20 be 13 14 a2 be 7e 7d 7d be
       0.049824126 -0.1571981 -0.3165594 -0.24754903
000240 b7 1a 8a bd 93 0b 98 bd 40 a3 0f 3e 81 96 da 3b
       -0.06743377 -0.074240826 0.14027119 0.0066707735
000250 99 ab fb bd 8c 5b 0e 3e 66 8d 2b bd 33 be 41 3d
       -0.12288589 0.1390211 -0.041882895 0.04730053
000260 67 d8 08 bd 9b b9 90 3d da 64 c7 bd 61 2f a8 3d
       -0.033409502 0.070666514 -0.09736033 0.08212162
000270 8c cf 10 be 2b eb 3e bb 05 5a 8b 3d 04 99 96 bd
       -0.14141673 -0.002913187 0.06804279 -0.07353404
000280 a1 d4 f1 3d 6b 1f 2a 3e c6 b9 2d 3e b5 3a 11 3e
       0.11808134 0.16613548 0.16965398 0.14182551
000290 6e ce 77 bd 53 2b a0 3c dd d3 42 bd 2a e5 0b 3e
       -0.0604996 0.019551909 -0.04756533 0.13661638
0002a0 c4 5d 5c bd 69 8d f7 bb b9 08 f6 bc 56 da 4f 3d
       -0.05380036 -0.007554699 -0.030033456 0.05074533
0002b0 2b df 4e 3e d8 0d 4a 3e ac 42 cf 3d 1f cc 9b 3b
       0.2020232 0.19731843 0.101201385 0.0047545577
0002c0 18 fb 99 bd bb fa f1 bd 62 10 2f bd c9 f8 04 3d
       -0.075185955 -0.11815401 -0.042740233 0.032463823
0002d0 48 c8 fc 3d 30 e5 ed 39 87 cd a8 3d 01 1c a6 3d
       0.12342888 0.0004537492 0.08242326 0.0811081
0002e0 60 ab e5 3d 43 ae 91 bd c7 b0 cb 3d a4 cf c1 3d
       0.11214328 -0.07113316 0.09945827 0.094634324
0002f0 08 03 52 bc 18 ff b3 bc c2 60 0a 3e d7 24 7a bc
       -0.0128181055 -0.021972224 0.13513473 -0.015267572
000300 52 2b 64 3d bc e4 c9 3c 78 b9 94 bd e9 4d c6 3d
       0.055705376 0.024645202 -0.07261938 0.09682829
000310 a9 44 4b 3e 0e 57 ac 3d ea e7 04 3e d3 8c e2 bb
       0.1985041 0.08415042 0.12979093 -0.00691376
000320 a0 a5 92 bd b8 a5 03 be fc bf a5 bd 43 bf 30 bd
       -0.07160497 -0.12856185 -0.08093259 -0.04315115
000330 99 80 0d 3e ad 05 8e bc 71 22 b9 bd 26 60 08 3d
       0.13818587 -0.01733669 -0.09039772 0.03329482
000340 f2 05 14 3d 09 6f b2 bd 7b 31 0d 3e ea 04 d2 bd
       0.036138482 -0.087125845 0.13788407 -0.102548435
000350 77 78 5c 3c 07 a6 ed bd 62 0e ff 3d a6 54 8f bc
       0.013456455 -0.11603933 0.12453915 -0.017496418
000360 ed f7 1a bc 2f 23 c4 3d bb e8 e6 bd 50 78 0d 3e
       -0.009458524 0.09577023 -0.112748586 0.13815427
000370 02 bf 08 3e 22 3c 0b 3e 61 41 7a bd af f1 b8 3d
       0.13354114 0.13597158 -0.061097506 0.090304725
000380 a9 43 e4 bd 8c 58 d8 bd cb e2 0b 3d c8 73 4a 3d
       -0.11145718 -0.10563764 0.034151834 0.049426824
000390 58 27 14 be 4b 0a 55 bc 25 15 12 3e eb a3 17 3e
       -0.14468133 -0.013002942 0.14265878 0.14808623
0003a0 31 b0 67 3d c0 e4 22 3e 07 77 19 3e e5 9c 11 bd
       0.056564514 0.15907574 0.14986812 -0.035550017
0003b0 83 14 09 be 01 23 2f 3e 8b b6 bd 3d 41 f1 fa bc
       -0.13386731 0.17103197 0.09263333 -0.030632617
0003c0 42 6d 2c be b2 ad a3 bd cf e4 df 3c e2 fd a2 3d
       -0.16838554 -0.07992114 0.027330784 0.079585806
0003d0 82 f5 3f bb 59 54 bc 3c 29 90 42 3d 19 8d 1d be
       -0.0029290621 0.022989439 0.047500763 -0.15385856
0003e0 b5 7b 55 be db 2c 34 be 13 95 01 be 58 29 e5 3d
       -0.20847972 -0.17595236 -0.12654524 0.11189526
0003f0 36 61 cb 3c 08 7c da bd ab 21 36 3d 2f a9 d8 3d
       0.024826627 -0.10668188 0.044465702 0.10579144

bias f4 [6]
000000 42 fa 9d bc ba 7c 5f bd f4 c1 8b bc 62 56 a7 bc
       -0.019284371 -0.054562308 -0.017060257 -0.020426933
000010 be ed 7b 3c bc 42 64 bd
       0.015376506 -0.055727705

weight f4 [6]
000000 84 4d 69 3f ad b7 9e 3f 72 e7 3f 3f 3a 4a 89 3f
       0.91133904 1.2399803 0.7496253 1.0725777
000010 7c b9 7e 3f 5f e2 93 3f
       0.99501777 1.1553458

bias f4 [6]
000000 3c bd b9 3c b3 27 d9 bd 08 0b f8 3c 84 19 52 bb
       0.022673242 -0.10603275 0.030278698 -0.0032058666
000010 43 30 13 bd 95 a3 28 bd
       -0.035934698 -0.04117163

running_mean f4 [6]
000000 5a 64 ca bd c5 07 36 3f b0 6e b2 bf 0b 40 bd 3e
       -0.09882422 0.71105605 -1.3940029 0.36962923
000010 b3 9f ba 3e fb 1f 09 3f
       0.36449966 0.53564423

running_var f4 [6]
000000 20 a5 64 3d 7a 01 9d 3e 09 b1 52 3f 68 09 15 3e
       0.055821538 0.3066519 0.82301384 0.1455437
000010 ac ac 0e 3e 65 99 3d 3e
       0.13933057 0.18515547

weight f4 [16, 6, 5, 5]
000000 5a 77 00 3d 35 02 60 bc cb 81 bc 3c df b7 9d 3d
       0.031363823 -0.013672401 0.023011109 0.07701086
000010 70 36 0f 3d cb 3b 9a 3b 6a fc 1a bb a9 2a 3f bd
       0.034964025 0.004706835 -0.0023648986 -0.046671543
000020 a3 0b 8f bd b6 be a4 bc c7 f5 a3 bd 29 b4 7c 3d
       -0.069846414 -0.02011047 -0.08005863 0.06169525
000030 e7 ee 9c 3c 4c 4e 9c bc 88 e1 01 3d 47 92 d0 3c
       0.019156886 -0.019080304 0.031709224 0.025460375
000040 72 e1 59 3d c4 67 ae bc 5b a4 9a 3d f7 f2 a5 bd
       0.053193517 -0.021289714 0.075508796 -0.081029825
000050 40 6b 14 3d 06 fd e3 bb 2a 6b 57 3d af ba 1c 3c
       0.036235094 -0.006957653 0.052592434 0.009565993
000060 b4 76 ed 3c ea 56 cd 3d 52 6e 21 3d 1b ce 94 bc
       0.028987266 0.10026343 0.03941185 -0.018164685
000070 77 21 bb 3d 56 b9 d7 bc 01 a1 20 3e 78 1b 71 3d
       0.09137242 -0.026333492 0.15686418 0.058864087
000080 9c 0e 9f 3d 81 cf 83 bd 6a f8 42 3d c5 d3 86 3d
       0.077664584 -0.064360626 0.047600187 0.065833606
000090 43 50 8d bd 7f c6 e7 3c 01 40 98 bd dd 41 94 bd
       -0.06900074 0.028292893 -0.07434083 -0.07239125
0000a0 f0 b7 b0 bb 13 d2 26 3e 5f b6 41 3d c9 0d c3 3d
       -0.005393021 0.16291074 0.047293063 0.09524114
0000b0 4c 6d ad 3d cc 42 ba 3d 3e 1c 54 3e ab b3 04 3e
       0.08468112 0.09094772 0.20713899 0.12959163
0000c0 b4 a2 e0 bd 75 09 02 be de bc cc bd f0 bb d4 bd
       -0.10968533 -0.1269892 -0.09996961 -0.10387409
0000d0 f1 d9 26 bd ca d1 d5 3d 2a 1d 93 bb 44 77 2f bd
       -0.04073519 0.10440405 -0.0044895606 -0.04283835
0000e0 f1 5a 5c bd 60 04 df 3d 31 59 97 bd c2 b1 bf 3d
       -0.053797666 0.10889506 -0.07390059 0.093600765
0000f0 9b 5d bc bc 96 60 b5 bd 67 ed 44 3c 6d 1f 9e bd
       -0.022993853 -0.08856313 0.012019492 -0.07720838
000100 53 c3 1c 3d f9 3e 82 bd 24 43 e0 ba d6 e3 62 3d
       0.038272213 -0.06359667 -0.0017109853 0.055393063
000110 aa 07 45 3d a4 f4 a1 bd a7 54 ca bd 1a d0 88 3d
       0.048103012 -0.079079896 -0.098794274 0.06680317
000120 5c 2b be bd d4 16 c8 bd 0b ad 5c 3d 01 97 91 3d
       -0.09285614 -0.09769979 0.053875964 0.0710888
000130 49 28 e3 bd 74 94 60 3d b9 fd 55 bc 84 71 c1 3d
       -0.11091668 0.054829076 -0.0130609805 0.094454795
000140 ed 99 f8 3c 7d 9f 81 bb e2 2f bc bc b9 21 00 bd
       0.030346835 -0.00395578 -0.022972051 -0.03128216
000150 ce ae 9b bd 4d 63 ae bb 4f 20 5b 3c e5 3a 5f bb
       -0.07601701 -0.005321896 0.013374402 -0.0034062203
000160 93 1c 85 3d 8c e9 39 bb e9 6c b9 3d 36 0c 10 3e
       0.06499591 -0.0028367965 0.09053976 0.14067158
000170 e1 03 00 bc bd 05 3a bd 21 8d 89 bd 29 be 9f 3d
       -0.007813425 -0.04541563 -0.06716371 0.07799942
000180 96 c1 f6 3d d1 83 90 bb d0 b2 d3 3c 5a 80 6a 3c
       0.12048642 -0.004410245 0.0258421 0.014312828
000190 15 6e 35 bd 1a 93 2e bc 7f 05 0e bc 37 02 56 3d
       -0.044294436 -0.010655189 -0.008668303 0.052248206
0001a0 98 1e 35 bc 60 0e df 3d 12 82 dc 3d cd 69 79 bd
       -0.011054657 0.10891414 0.107669964 -0.060891915
0001b0 e0 49 6c 3d 2e be a2 3c f0 be d0 3d 35 33 83 bd
       0.05768764 0.019866075 0.101926684 -0.06406251
0001c0 ba 33 ba bd 50 86 1c bd 4d 86 25 3d dd ba 7c bd
       -0.09091897 -0.038214028 0.040411282 -0.061701644
0001d0 61 e4 d1 3c bc 11 da bd d7 c7 ab bc 30 a3 73 3d
       0.025621595 -0.10647914 -0.020969315 0.0594818
0001e0 24 d0 82 bd cc dd 30 3d aa 7e 84 3d 45 8f 94 bd
       -0.06387356 0.043180272 0.06469472 -0.07253889
0001f0 b3 69 88 3d ff 14 68 bd da 01 e9 bc 94 a0 12 bd
       0.066607855 -0.05666065 -0.028443266 -0.03579767
000200 da dc 4e 3d 8c 7f 6f bb d0 a7 87 3d e3 42 26 3d
       0.05050359 -0.003654453 0.066238046 0.040591132
000210 22 3f 65 3b ea 5e b7 3c 62 01 9d 3d 45 bd f1 bc
       0.0034980257 0.022384126 0.076662794 -0.029509196
000220 c7 67 d5 3d d6 f5 90 bd 11 1f 92 3d 60 f9 72 3d
       0.104201846 -0.070781395 0.07134832 0.059319854
000230 bf 4e 05 3c 3d 44 14 3e a4 88 35 3e 69 52 f7 bd
       0.00813645 0.14479156 0.17727906 -0.12076265
000240 67 5e 09 be 14 05 dc 3d d6 00 47 3e ab 4e 91 3c
       -0.13414918 0.10743156 0.19433913 0.017737707
000250 36 ae 59 3b 36 aa 39 be 9b 72 66 3d 8b 02 5c bd
       0.003321541 -0.18131337 0.05626164 -0.053713363
000260 36 50 e6 bd 61 7a ec bd 1a a2 24 be b9 f8 ae bc
       -0.11245768 -0.115467794 -0.16077462 -0.021358835
000270 35 33 51 3c 23 b9 7c 3d 2c 6e 2d bd 10 9d 43 3d
       0.012768556 0.061699998 -0.042341396 0.04775721
000280 12 25 b0 bd b8 25 9e 3c d6 40 31 3d 4d 4b 13 bb
       -0.086008206 0.019305095 0.043274723 -0.0022475303
000290 a8 ad 25 3d 32 bf e3 bd 94 91 5c bd ae 6e 95 3d
       0.040448815 -0.11120452 -0.05384977 0.07296501
0002a0 ec 15 de 3c e6 04 2f 3d fb cd ec bc c4 a8 68 bb
       0.027110063 0.04272928 -0.028906813 -0.0035500983
0002b0 f8 9e 43 bd 54 92 86 3d b7 ca ee bd 40 81 97 3c
       -0.047759026 0.065708786 -0.116597585 0.018494248
0002c0 88 fc d5 3d f5 0a 90 3d a1 98 14 bd a4 9a 5f 3d
       0.10448557 0.0703334 -0.03627837 0.054590836
0002d0 24 fe b3 3d e9 d2 5b 3d 73 f3 f2 3d ed 2f 94 bd
       0.08788708 0.053667936 0.118628405 -0.072357036
0002e0 82 19 fc bd 33 cb 87 bc 74 bb aa bd f2 70 d1 bd
       -0.12309553 -0.016576385 -0.08336535 -0.10226621
0002f0 01 d1 87 3c 86 71 6f bd bc 26 d2 3d 25 3d dd bd
       0.016579153 -0.058457874 0.10261294 -0.10802678
000300 f2 3c 9d bd 99 36 a9 bc 94 59 fe bc c3 f2 a4 bd
       -0.0767764 -0.020655917 -0.031048574 -0.080541156
000310 da 23 68 3d 26 0f c3 3d 93 91 56 3e 00 38 d9 3c
       0.056674816 0.09524374 0.2095397 0.02651596
000320 3b ef 82 bd f6 29 86 3a 37 dc d1 bc 4d 62 3d 3d
       -0.06393286 0.0010235894 -0.025617702 0.046236325
000330 78 ed a0 bd 23 bf 82 bc 22 7e b4 bc 30 68 dd bc
       -0.078577936 -0.015960282 -0.022032801 -0.02702722
000340 bd 20 0e 3d fc b2 95 bc ed a6 00 bd 57 92 b3 bd
       0.03469919 -0.018273823 -0.031409193 -0.087681465
000350 bd 10 80 3d 5b 46 5d bb 23 2a 97 bd cb 3c 3e 3d
       0.062531926 -0.003376386 -0.07381084 0.046444695
000360 92 ca 2a bd 49 11 a5 bd 46 0c 6a bd 9a b3 de bb
       -0.041697092 -0.080599375 -0.05714061 -0.0067963125
000370 08 7f ce 3d 8e 38 9a bd 87 0e af bd e2 20 1c bd
       0.10082823 -0.07530318 -0.08547693 -0.038117297
000380 8b 4f 7a 3d 01 29 28 3b f5 cd 17 3d a1 b2 a2 bd
       0.061111014 0.0025659206 0.03706165 -0.07944227
000390 9f dd c4 bd 2f 27 20 bd dd c0 8a bd 41 50 17 3c
       -0.09612583 -0.03909987 -0.06775067 0.009235443
0003a0 cf d0 b0 3d dc 82 e4 3d 31 ea 23 3d 42 b5 43 bd
       0.08633577 0.11157772 0.040018264 -0.047780283
0003b0 a2 14 b3 bd 72 11 2c 3c da c4 ad 3d fe 58 57 3c
       -0.0874417 0.010502206 0.08484812 0.013143776
0003c0 23 d3 2e bd 80 ce 8b bc 09 5a d8 3d 70 63 5e 3d
       -0.042681824 -0.01706624 0.10564048 0.05429405
0003d0 17 9b 0e bd 20 1a 2f bd 84 85 a0 3c 7f 89 67 3d
       -0.034815874 -0.042749524 0.019594915 0.05652761
0003e0 a3 38 0a 3d 8a d0 c8 bd 26 05 59 3d 34 06 80 3d
       0.03374542 -0.09805401 0.052983426 0.06251183
0003f0 9d 98 cd 3d 68 13 1b 3c c6 b9 cc 3d 6d a4 83 3c
       0.10038874 0.009465076 0.09996371 0.016069615

bias f4 [16]
000000 21 fe 39 bc 72 e9 24 3c 42 2a 1c 3c 08 ad b0 3c
       -0.011352093 0.010065423 0.009531559 0.021566883
000010 1d 1a 50 bc 14 de 27 ba 4e 86 e7 3b 2e 5a 8c 3b
       -0.012701538 -0.00064036367 0.007065571 0.004283211
000020 f5 46 95 bb c0 dd 82 bc 98 8e bd 3c e2 60 71 bc
       -0.004555578 -0.01597488 0.023139283 -0.014732571
000030 f6 02 82 3b d7 43 37 bd a6 98 fa 3b 3c a7 9d 3c
       0.003967638 -0.04474243 0.0076475916 0.019244783

weight f4 [16]
000000 3a 3a 86 3f 6f 16 89 3f 61 1a 82 3f 69 f9 84 3f
       1.0486519 1.0709971 1.01643 1.0388614
000010 88 15 8d 3f c9 6e 6c 3f 75 f4 8b 3f bd 4a 67 3f
       1.1022196 0.92356545 1.0933977 0.90348417
000020 31 97 84 3f 98 69 7d 3f 69 bb 63 3f df e6 89 3f
       1.035864 0.9898925 0.8895784 1.0773581
000030 e0 58 69 3f d8 08 7a 3f 04 2c 88 3f d3 22 81 3f
       0.9115124 0.97669744 1.0638433 1.0088753

bias f4 [16]
000000 2e ca c7 3b 18 94 69 bd 79 fa b5 bd c5 71 31 bc
       0.0060970997 -0.057026 -0.088856645 -0.010830347
000010 d8 d6 38 bc ec 66 8d 3c 58 2a eb 3b 0d 9f 20 be
       -0.0112816915 0.017260991 0.0071766786 -0.15685673
000020 fb a4 52 bd 6c 72 48 bd c8 db d7 bd 30 d7 d5 bd
       -0.05142687 -0.048937246 -0.10539967 -0.104414344
000030 fc 9b a9 bd e4 69 90 bd 24 cb 8a bc df d9 1b bd
       -0.08281705 -0.07051447 -0.016942568 -0.038049575

running_mean f4 [16]
000000 64 0e 00 3f 83 bf aa be 9b a1 ec be 08 8f 0a be
       0.5002196 -0.33349237 -0.46217045 -0.13531125
000010 8b 43 24 be 58 4b a3 be 77 b5 bd 3d 75 3b 98 3e
       -0.1604139 -0.3189342 0.09263127 0.29732862
000020 32 7a af be 83 bf a4 be e2 16 d9 3e f2 bc 0a bf
       -0.34272915 -0.32177362 0.4240027 -0.5419456
000030 17 63 99 be a0 7e 3e bf 5c e5 5a be b6 b1 50 3e
       -0.29958412 -0.74411964 -0.21376556 0.20380291

running_var f4 [16]
000000 f5 aa 93 3e 45 fb 45 3e a3 0f a7 3e b1 d5 0a 3e
       0.28841367 0.19334133 0.32629117 0.1355808
000010 42 78 18 3e 78 7a 53 3e 85 5b 64 3e ac cd 9a 3e
       0.14889625 0.20652187 0.22300537 0.3023504
000020 6c 40 30 3e 5d 64 0e 3e 98 b6 eb 3e fa d2 8c 3e
       0.17212075 0.13905473 0.46037745 0.27504712
000030 a1 db 74 3e d1 ca 51 3e ce b1 be 3e 56 5e 31 3e
       0.23911907 0.20487525 0.3724503 0.17321143

weight f4 [120, 16, 5, 5]
000000 7f 87 cc 38 9f 85 38 bd 45 4f 74 bc c0 22 c1 bc
       9.752716e-05 -0.045049306 -0.014911477 -0.02357614
000010 5b 31 f7 bb 1d 34 85 bd 46 39 0a bd 4d 96 c4 3c
       -0.0075437254 -0.065040804 -0.033746026 0.02399745
000020 d6 d9 36 bc ca 3b 97 bd c0 b0 76 bc fb a0 e5 bc
       -0.011160335 -0.07384451 -0.015056789 -0.028030863
000030 d8 b2 1e bc 42 da a5 3d 3c 3f da bb a9 44 93 3b
       -0.009686194 0.0809827 -0.00666037 0.004494269
000040 85 9d fb bb 85 a6 82 bc ef 02 30 3d af 0a 4b 3d
       -0.00767869 -0.015948543 0.042971548 0.049570736
000050 7e 37 2e 3d e8 c4 d7 3c 8a 52 65 bd f8 b3 8f bd
       0.04253339 0.02633901 -0.05598692 -0.07016748
000060 7a 0d 3a 3d df f9 2d b9 dd 19 19 bd a5 7c 53 bd
       0.04542301 -0.0001659165 -0.03737818 -0.051632542
000070 8f f8 ef bb 0e 5c c6 3c eb ce c2 3c f7 3b b0 bc
       -0.0073233317 0.024213817 0.023780307 -0.021512968
000080 e7 41 c2 3d 60 17 4d bd 6f 53 a7 bc e9 b4 90 3c
       0.09485226 -0.05007112 -0.020425526 0.01766439
000090 85 97 8b ba 1a 53 63 3d 9d 11 d0 3c 77 d0 0b 3d
       -0.0010650015 0.055499174 0.025399024 0.034134354
0000a0 87 e4 0c 3d 93 f4 28 3d 16 67 20 3c 0e 91 2b 3c
       0.03439763 0.04124887 0.009790203 0.010471595
0000b0 7e e8 74 3b 04 29 19 bd a3 4c 01 bd d5 41 ab 3b
       0.0037370021 -0.03739263 -0.031567227 0.0052263536
0000c0 73 88 2f bd be a0 97 bc ce aa 1c bb 8e e3 1d bd
       -0.042854737 -0.018509265 -0.0023905518 -0.03854709
0000d0 33 bb 96 bd 83 3a a1 bd eb a9 38 bd c3 5b a4 bd
       -0.07359924 -0.07872488 -0.04508392 -0.08025315
0000e0 82 2b 3c 3c d6 c1 e2 bd 05 74 57 bb 5f 07 d9 bc
       0.011484982 -0.110721275 -0.003287555 -0.026492773
0000f0 da 76 ad bd 92 ef ee bd 44 7a 15 bd fd 68 7c bb
       -0.08469935 -0.11666788 -0.036493555 -0.0038514726
000100 90 d3 c1 bc c7 8c d2 3d c7 41 e2 bc dc e7 cd bd
       -0.023660451 0.102807574 -0.027619256 -0.10053989
000110 2d 73 20 bd c3 b9 d3 bc e6 e5 21 bd 03 b1 4d bd
       -0.03917234 -0.025845414 -0.03952589 -0.05021764
000120 0e 42 da 3c 6a 53 bc bb c7 f4 c1 bc dc 07 e1 bc
       0.026642825 -0.0057472484 -0.02367629 -0.027469568
000130 61 5c 4e 3d e4 50 f4 bb 38 4c af 3c d9 d0 ad bc
       0.05038107 -0.007455932 0.021398649 -0.02121775
000140 6f 4a 14 bd 22 2f 13 3d f9 86 80 3c d6 4c 0b b8
       -0.036203798 0.03593362 0.01568936 -3.321174e-05
000150 ef 56 02 3d ef 0a 69 bc 9c ea ab bd 5c 97 18 bd
       0.031821188 -0.014223798 -0.083943576 -0.037253723
000160 43 1d c0 3d 1b a6 3c bd 13 d0 a2 3c 31 2c 78 bd
       0.09380581 -0.046056848 0.019874608 -0.06058902
000170 4d 05 29 bd d3 8b 23 ba 96 08 ba 3c bd 79 80 3d
       -0.04126482 -0.0006238792 0.022709172 0.0627322
000180 79 b0 a5 bc f3 eb 89 bc 64 a7 6b 3c b6 74 c2 3c
       -0.02022575 -0.016836142 0.014383171 0.023737293
000190 f8 3b b8 bc 0c 7a 82 3c 5c a7 04 bd 80 2d b2 bd
       -0.022489533 0.015927337 -0.03238617 -0.08700085
0001a0 a3 77 92 bc 3f 8a a9 3b 25 7a 90 3c 91 97 12 3d
       -0.017879313 0.005173951 0.017636368 0.035789076
0001b0 2f ea 8c 3c 8f 6b 9d bc 19 f8 8e 3d a2 ca ce 3d
       0.017201511 -0.019216327 0.069809146 0.10097243
0001c0 51 68 a7 bb dc 60 4e bd 7f 5d ed 3d 23 9c 3a 3d
       -0.005108871 -0.05038534 0.115900986 0.04555906
0001d0 a6 bb f6 3d 06 6c 44 3d 3d 1f 76 bc 8f a9 d4 3d
       0.1204751 0.04795458 -0.015022096 0.10383903
0001e0 b1 ae 77 bc 9e 99 49 bb c1 54 fc 3c 7c 5a 9a bb
       -0.015117333 -0.003076173 0.030802133 -0.0047104936
0001f0 23 9f f6 3c 7a c7 65 3b f8 c9 35 3d 2e c8 c6 3c
       0.03010518 0.0035061524 0.044382066 0.024265375
000200 b3 37 1f 3d 6a 41 47 3c b8 30 92 3c 2e 53 58 3d
       0.03887148 0.012161592 0.017845497 0.0528137
000210 23 c1 13 3d 13 64 2c bc 56 d1 5b bd 69 c5 e7 3c
       0.03607286 -0.010521906 -0.053666435 0.028292375
000220 9e 9e 01 bb 62 3b 7c 3c af 07 34 3d d2 fe f6 3b
       -0.001977838 0.015395017 0.04395264 0.007537701
000230 1e 26 8f bc 27 f7 37 bd ee 08 39 3d 95 6f 80 3b
       -0.01747423 -0.044913437 0.04517453 0.0039195516
000240 5e 88 ae 3c ef 1f 8c 3d 5a df b5 bc 18 51 bc 3b
       0.02130526 0.06842028 -0.022201229 0.005746972
000250 17 26 ca 3c 6e 1c ad bb 39 2b 1d bd 8b e5 af 3d
       0.024676366 -0.00528293 -0.0383713 0.08588704
000260 73 89 c4 3c e5 ed 60 bc 68 5f a0 bc 66 12 22 3b
       0.023991322 -0.0137285935 -0.019576743 0.0024730205
000270 05 3e 9b 3b 28 ea 33 3c 12 5a 1e 3d 2b 53 07 3d
       0.004737618 0.01098112 0.038660116 0.0330383
000280 10 ab ca 3c a1 00 dc 3b 88 5e 29 3d c0 ef 25 bd
       0.024739772 0.006713942 0.041349918 -0.040511847
000290 4f 66 0a bd ec c8 17 3d 91 9b 9f bc ff 3f dc bd
       -0.033788975 0.03705685 -0.01948336 -0.10754394
0002a0 80 2f a0 bb 36 41 37 bd ae 9a c4 3c ff a6 21 bc
       -0.004888475 -0.044739924 0.023999538 -0.009866475
0002b0 a1 28 f9 3a cd ef c7 bd 4e eb 13 3d 92 7d 34 bc
       0.0019009301 -0.09762535 0.036113076 -0.011016266
0002c0 f1 38 dc bc 5a 9b ac bc af c0 a4 bc 1f b5 00 3d
       -0.02688262 -0.021070171 -0.02011141 0.03142273
0002d0 61 a9 9e bd f4 2a 43 bd 07 d7 5b 3c 3b 3d 55 bb
       -0.0774715 -0.047648385 0.013417966 -0.0032537717
0002e0 08 cc c8 bc f0 e8 c3 bc 9e d8 fe 3c 7b f9 12 3d
       -0.024511352 -0.023914784 0.03110915 0.035882454
0002f0 27 bb 7a bd 6f 65 0e 3d b1 75 f3 3c cb 38 a7 3c
       -0.06121364 0.034764703 0.029719206 0.020412823
000300 fb 30 31 bd 58 fb 4f 3d 0e cf 90 3d 3b b3 36 bb
       -0.043259602 0.05077681 0.070707425 -0.0027877826
000310 ff d3 b6 ba b5 b0 5c bd c2 12 14 3d 84 56 bd 3c
       -0.0013948678 -0.05387946 0.0361507 0.023112543
000320 e5 13 a6 bd 7e 1d 69 bb 72 58 a3 3c 0d 87 76 3c
       -0.08109263 -0.0035570557 0.019939635 0.015046847
000330 50 dd 07 bd 99 80 1a bd 6c 15 5b bc b3 de 6b bd
       -0.033170044 -0.037720297 -0.013371807 -0.05758543
000340 c5 31 f3 bc 4b b8 51 bd 5b 84 cd bd be 2a d9 bd
       -0.029686818 -0.051201146 -0.100350104 -0.106038556
000350 ba 89 a0 bd 94 a5 7c 3c 91 1d 8a bd d4 43 a3 3b
       -0.07838769 0.015420336 -0.067439206 0.004982451
000360 e0 00 14 3d 4a 22 d0 3c b1 02 70 bd 86 cf 88 3b
       0.036133647 0.025406975 -0.058596317 0.0041751293
000370 3b b5 e7 3d 27 7b fb 3c fd d4 fd bc 5f 2f 41 bd
       0.11313864 0.030698372 -0.03098535 -0.047164317
000380 27 cb a7 39 df a0 bf bc d8 84 f7 bb 20 65 a6 3b
       0.00032004082 -0.023392139 -0.007553678 0.005077973
000390 68 87 02 3d 6f 9d 34 bd 17 40 0b 3d f3 3a 8f 3c
       0.031867415 -0.044095453 0.033996668 0.017484164
0003a0 86 a5 26 bd 49 a1 46 bd e5 d1 1b 3d 1b 54 4d 3d
       -0.0406852 -0.048493657 0.038041968 0.050129037
0003b0 56 f6 8c bc 28 12 5b 3c 3e 61 6c 3d 49 fa 1d 3d
       -0.017207306 0.013371028 0.057709925 0.03856877
0003c0 77 e9 ad bd 9f 40 97 bd 23 aa 23 bd 58 80 48 3d
       -0.084917955 -0.07385372 -0.039957177 0.048950523
0003d0 3c 70 92 bd d7 d7 d3 bc ce c9 c7 3b ef cd 2a 3b
       -0.07150313 -0.025859756 0.006097055 0.0026062687
0003e0 f3 2e b1 3b 92 22 d4 bb 0a c5 96 3c ba e0 16 bd
       0.005407208 -0.0064738477 0.018404502 -0.03683541
0003f0 ea b9 a2 3c 03 f0 15 3c 30 c7 1b 39 71 cf 72 3c
       0.019864041 0.0091514615 0.00014856155 0.014819966

bias f4 [120]
000000 fe 52 90 3a 74 94 f0 ba 75 48 b0 bb d6 83 12 bc
       0.0011011062 -0.0018354789 -0.0053797313 -0.008942565
000010 76 fe 18 bc 71 98 32 3c a1 9b b7 b7 52 5f 54 bb
       -0.009338012 0.010900603 -2.188777e-05 -0.0032405448
000020 d4 9e f6 b9 9e 69 e4 3a 63 d1 29 bb 7e ee 25 ba
       -0.00047039113 0.0017426496 -0.0025912158 -0.00063297886
000030 2e 13 7b 3c 44 c0 48 bb f0 55 75 b9 0e 62 50 bb
       0.015324397 -0.0030632177 -0.00023397035 -0.0031796726
000040 6f ca 5a 3c b9 cc 88 3c 97 ec c3 ba f1 80 f4 bb
       0.013353928 0.016699182 -0.0014947829 -0.00746166
000050 24 f9 10 3b 1c 95 ed 38 1e 0d b7 bb 59 6c b6 bb
       0.0022121156 0.000113288144 -0.0055862805 -0.0055671153
000060 62 91 de 3a ad 2e 0a bc af 36 21 bb 68 2e 22 bc
       0.0016980583 -0.00843398 -0.0024599244 -0.009898759
000070 d8 df 2f 3b 4d 24 15 3b 4d e0 db bb af 68 37 3b
       0.0026836302 0.0022757233 -0.0067100883 0.002798598
000080 e6 a1 69 bc 3c 5c d9 3a 2a 1e 2c bb d4 38 d9 ba
       -0.014259791 0.0016583274 -0.0026263096 -0.0016572722
000090 3f 91 15 3c 1f 4b 59 3b 20 42 19 3b aa 41 00 3b
       0.009128868 0.0033156348 0.002338536 0.0019570389
0000a0 8b dc 68 bc 3e 71 15 ba 9e 2f 6c 3b 27 8d 54 bb
       -0.014212738 -0.00057007733 0.0036039124 -0.0032432766
0000b0 a1 f5 8b b9 5b 56 cb bb 0f 90 89 bb c2 a1 ef 3a
       -0.00026695154 -0.0062053627 -0.0041980813 0.001828246
0000c0 e2 f6 11 3c 82 b9 9e bb 91 81 38 39 a8 59 1c bb
       0.008908959 -0.0048438916 0.00017595875 -0.002385715
0000d0 a7 bb 12 3b aa 2d c0 3a 3c 00 7c ba c6 bd 7a 3c
       0.0022389682 0.0014662046 -0.0009613072 0.015304035
0000e0 21 51 7d bb d9 1b b7 bb a6 1a e3 3a 05 66 0b bc
       -0.0038653093 -0.0055880365 0.0017326667 -0.00850821
0000f0 5a 51 5d bc f3 29 4d bb 62 dc 57 3b 6d 57 ee 3a
       -0.013508165 -0.0031305521 0.0032937755 0.0018184014
000100 ab 69 2d 3c e3 53 2c 3c 33 c7 2f 3b 06 4a a4 bb
       0.010584275 0.010518047 0.0026821613 -0.005013707
000110 31 b3 16 3a b7 73 e5 3b fd b3 1a 3c e1 68 de 3b
       0.00057487475 0.0070023197 0.009442327 0.006787405
000120 34 36 9e bc 69 03 06 3c 88 d9 d9 3b f4 41 ac 3a
       -0.019312955 0.008179524 0.006648246 0.0013142214
000130 30 f9 e8 ba 82 19 da bb e7 e3 c7 ba 87 3d 71 3a
       -0.0017774459 -0.006655873 -0.0015250415 0.00092025887
000140 6b 47 1b 3b 01 3f bc bb 77 6c 77 3b c0 d4 65 3c
       0.0023693691 -0.0057448153 0.003775386 0.014027774
000150 e2 af 6c 3b 9a 6d a2 3b 42 b0 5d 3b fb db 2d ba
       0.0036115577 0.004956913 0.0033826982 -0.0006632206
000160 79 11 74 3b 1c a7 56 bb 0f 2b eb ba b8 7c 2f 3b
       0.003724186 -0.0032753414 -0.001794191 0.002677722
000170 92 27 36 3b c9 27 49 3a f1 91 d2 ba 97 e6 08 3b
       0.0027794582 0.000767347 -0.0016065222 0.0020889395
000180 63 ed 88 37 cd 74 9c 3b f7 ed 48 3c 1e bd 6b 3a
       1.6323005e-05 0.004774666 0.0122637665 0.0008992719
000190 32 55 40 3c 0a 74 e1 3b 20 fe de 3b 58 38 a1 bb
       0.011739062 0.006880288 0.0068051964 -0.004920047
0001a0 12 df 41 3b 24 d8 83 bb 97 04 0b 3b c3 0a d7 bb
       0.0029582423 -0.0040235687 0.0021212453 -0.006562562
0001b0 56 df 01 3b 89 34 54 bb a7 a6 0d 3a 46 ab 36 3b
       0.0019816956 -0.0032379946 0.0005403556 0.0027873083
0001c0 3e 9e b8 3a 36 e4 81 bb 57 1b a5 37 ca 18 ed ba
       0.0014085246 -0.0039639724 1.9682264e-05 -0.0018089053
0001d0 d9 cd b4 b9 e5 4a 5b 3b ec 25 1e bc 92 75 7c 3a
       -0.00034485644 0.0033461389 -0.009652596 0.00096305565

weight f4 [120]
000000 ac 81 7e 3f 1d 52 81 3f b2 68 85 3f 59 7a 85 3f
       0.99416614 1.0103184 1.0422575 1.0427963
000010 93 ce 7c 3f 04 ee 79 3f f8 91 86 3f 62 5b 82 3f
       0.9875271 0.9762881 1.0513296 1.0184138
000020 44 90 85 3f 0a 96 7f 3f ae 74 80 3f 8e 8d 81 3f
       1.0434651 0.99838316 1.0035608 1.0121324
000030 2d 2c 84 3f 73 31 87 3f 8b 77 8a 3f 3c ab 82 3f
       1.0325981 1.0561966 1.0817732 1.0208507
000040 7a 0c 87 3f d8 2e 86 3f 61 c8 86 3f 49 b1 83 3f
       1.0550683 1.0483046 1.0529901 1.0288478
000050 09 b6 86 3f d1 15 87 3f 52 fc 86 3f b5 40 87 3f
       1.0524303 1.0553533 1.0545752 1.0566622
000060 12 de 84 3f 38 31 90 3f 9b b6 89 3f 4a 10 85 3f
       1.038027 1.126502 1.0758852 1.0395596
000070 99 e3 7e 3f 70 e3 7b 3f dc 38 87 3f 41 65 83 3f
       0.99566036 0.9839392 1.0564227 1.0265275
000080 eb d8 81 3f a8 c3 80 3f d2 75 81 3f f3 90 87 3f
       1.0144323 1.005971 1.0114081 1.059111
000090 8e ab 82 3f b2 41 7e 3f 14 09 82 3f d6 53 7f 3f
       1.0208604 0.99318993 1.015902 0.997373
0000a0 45 2a 82 3f 72 8e 88 3f b3 cd 89 3f c9 73 89 3f
       1.016915 1.0668471 1.07659 1.073846
0000b0 25 82 7f 3f 35 e0 87 3f 1b 7c 84 3f c2 1b 82 3f
       0.9980796 1.0615298 1.0350374 1.0164721
0000c0 9d b4 8b 3f 8c cc 80 3f 4f 59 82 3f 2b a8 82 3f
       1.0914494 1.0062423 1.0183505 1.0207571
0000d0 00 ae 83 3f 58 94 85 3f 11 c3 87 3f 70 4f 87 3f
       1.0287476 1.0435896 1.0606405 1.0571117
0000e0 7c 69 81 3f 07 84 7d 3f b0 f7 81 3f 46 b7 8c 3f
       1.0110316 0.9902958 1.0153713 1.0993431
0000f0 ff 8c 80 3f ea bd 82 3f a6 60 82 3f 91 f6 83 3f
       1.0043029 1.0214207 1.0185745 1.0309621
000100 5b 09 83 3f 6a ff 81 3f 1a cd 84 3f d8 be 87 3f
       1.023723 1.0156071 1.0375092 1.0605116
000110 6f 2f 83 3f 67 ac 7e 3f c1 15 83 3f e8 84 84 3f
       1.024885 0.99481815 1.0241014 1.035306
000120 65 79 84 3f 3a 10 86 3f 7a 69 86 3f a6 79 85 3f
       1.0349547 1.0473702 1.0500939 1.0427749
000130 bd 47 89 3f 5f 36 81 3f 04 d3 8e 3f e9 6d 82 3f
       1.0725018 1.0094718 1.1158147 1.0189792
000140 9d 8f 82 3f f3 4a 79 3f 67 d6 87 3f 14 1e 88 3f
       1.0200077 0.9737999 1.0612305 1.0634179
000150 cb 6d 8d 3f 40 47 81 3f e6 dd 7f 3f 15 73 87 3f
       1.1049131 1.0099869 0.99947965 1.0581995
000160 42 1f 88 3f cb cc 84 3f 5e 3d 86 3f dd 84 8f 3f
       1.0634539 1.0374998 1.0487478 1.1212422
000170 0c 5a 84 3f b7 ec 88 3f bb 8c 85 3f cc 2e 87 3f
       1.033998 1.069724 1.0433573 1.0561156
000180 3e ee 83 3f 68 91 84 3f 41 bf 87 3f b7 b9 83 3f
       1.0307081 1.0356874 1.0605241 1.0291051
000190 b4 fd 7f 3f 5a e3 84 3f c3 1b 8d 3f a4 d5 89 3f
       0.99996495 1.0381882 1.1024097 1.0768323
0001a0 e5 62 85 3f 4f 52 80 3f 8c b5 87 3f eb 69 81 3f
       1.0420805 1.0025119 1.0602279 1.0110449
0001b0 92 68 80 3f b2 ca 80 3f 8a 87 81 3f 27 a4 81 3f
       1.0031912 1.0061858 1.0119488 1.012822
0001c0 97 5a 85 3f e4 c7 7a 3f ea 4d 80 3f 06 5d 88 3f
       1.0418271 0.9796126 1.0023777 1.0653389
0001d0 98 24 88 3f 7e 46 81 3f 42 cb 81 3f 80 09 86 3f
       1.0636168 1.0099638 1.0140154 1.0471649

bias f4 [120]
000000 18 a6 a8 3c 57 72 bc ba 20 6c 3c bc 7e 3e 05 bc
       0.020587012 -0.0014377338 -0.011500388 -0.008132575
000010 e2 71 45 bd c7 f1 5f bd af e1 ac bc 7b 9b fd bc
       -0.04820431 -0.054673936 -0.021103708 -0.030957928
000020 20 dd a8 3c e3 80 f6 bc 48 7c 90 bc 80 cd ab bc
       0.020613253 -0.030090755 -0.017637387 -0.020972013
000030 4e 6a bb 3b 56 12 c8 bc 50 e4 df bc 10 99 bd 3c
       0.0057194596 -0.024422806 -0.027330548 0.023144275
000040 f3 f6 8a 3c 52 da ca 3c c9 17 b9 3b bb b1 98 bc
       0.016963458 0.024762306 0.0056485874 -0.018639436
000050 9d a6 be 3c c0 2c be bc 66 3e 20 bd fa 52 6e 3d
       0.023272807 -0.023214698 -0.039122008 0.0581846
000060 a1 fe 02 bd 9e 6b ff 3c 1b 0f 5f 3b dc 41 cf 3b
       -0.031981114 0.031179246 0.0034036103 0.0063249897
000070 bd 8b c9 bc 42 23 58 bd 41 5a 05 3d d5 b7 1a 3c
       -0.024602765 -0.052768 0.032556776 0.009443243
000080 b0 3b 3f bd ff 6b 0b bc 6d f0 fa ba 36 d0 d5 3c
       -0.04668778 -0.008509635 -0.0019145139 0.02610026
000090 fa 0f 1d bd 0f a1 36 3c 8f 55 50 bc d8 e0 f2 3b
       -0.038345315 0.011146798 -0.012715711 0.0074120574
0000a0 da 27 d9 3c fc ce bb 3c 28 8e 3f 3c 74 4f e9 3c
       0.02650826 0.022925846 0.011691608 0.028480269
0000b0 da 94 0c bd 89 6c 2b 3b 6b b0 77 3b 04 f5 88 3c
       -0.034321643 0.0026157221 0.0037794362 0.016718395
0000c0 37 52 e5 3c 80 e3 65 bc 4e fa 83 3c 62 88 07 bd
       0.027993305 -0.014031291 0.016110566 -0.03308905
0000d0 82 8e 92 3c 39 3f f4 bc cd 69 10 bb b6 b4 d1 bb
       0.017890219 -0.029815303 -0.0022035718 -0.0063997163
0000e0 bc f5 47 bc c0 34 25 bd 96 ef 30 3b 1a ce c3 3b
       -0.012204584 -0.04033351 0.0026998273 0.005975497
0000f0 d5 fe 3e 3c 3e 5f 89 3c 8b bd 02 3c 69 f9 03 3c
       0.011657436 0.016769048 0.007979761 0.0080550695
000100 f5 07 17 3d 8c 37 27 bd e4 1f a8 bc 5d 76 89 3c
       0.036872823 -0.040824458 -0.02052302 0.016780073
000110 e4 43 7e 3c 4c 1a fe 3b 2d 6a 65 bc 08 4c 17 3c
       0.015519116 0.0077545997 -0.014002365 0.009234436
000120 1e 2f 29 3c 8f 67 77 bc 4a 31 1c bd a0 d7 4f 3c
       0.010326175 -0.015100374 -0.038132943 0.012685686
000130 e3 75 ae bc fd 92 53 3c 59 81 87 3c 26 7b 8a 3c
       -0.021296447 0.012913463 0.01654117 0.016904425
000140 5b 18 41 bd 31 08 97 bc d4 66 6e bc 9f 2d 6e bc
       -0.047142368 -0.018436523 -0.014550883 -0.014537244
000150 24 0d 5a 3d 73 35 90 3b 0f 0b 00 bd d2 37 91 bc
       0.053235188 0.004400903 -0.031260546 -0.017726813
000160 0d f6 d1 bb fe fd b0 ba 55 7b 9d bc 4e 0b 8e 3c
       -0.0064075054 -0.001350343 -0.019223848 0.017339375
000170 3c c4 b5 bc bc 46 97 bc 2e 0b 80 3c 96 0c 83 bc
       -0.022188298 -0.018466346 0.01563033 -0.015997212
000180 f7 09 5b bd 2b 6c 8d 3c c1 eb 55 3c 6c 21 a5 bc
       -0.0534763 0.017263493 0.013056696 -0.020157538
000190 35 4c f4 3c 6b 80 bb ba 6c 18 aa 3b 6c 77 9b 3d
       0.029821495 -0.0014305239 0.0051908996 0.07591137
0001a0 e4 e3 57 bb 19 dc 1c bb f5 44 55 bd e0 d3 88 bc
       -0.003294223 -0.00239349 -0.052067716 -0.016702592
0001b0 05 62 0c bc 91 af 0a 3d 07 f6 b5 3b c6 82 f6 bb
       -0.008568292 0.03385884 0.0055530104 -0.0075229136
0001c0 36 1f 0a bb c8 25 04 bd 42 b0 00 bd 85 b6 1f bb
       -0.0021075732 -0.032262594 -0.031418093 -0.0024370265
0001d0 03 48 48 3c da ad 73 bc 78 e0 9a bc aa 48 9b bc
       0.0122242 -0.014872992 -0.018905863 -0.018955547

running_mean f4 [120]
000000 7e 17 0c be c8 85 3d be d0 8f 1f 3e 36 2e 37 be
       -0.13680837 -0.18508065 0.15582204 -0.17888722
000010 14 7a 4c 3f 09 e8 aa 3e 07 ce 26 3f 9b f7 32 be
       0.79873776 0.33380154 0.6515812 -0.17477266
000020 74 aa 03 3f e4 e0 05 3f ef 44 ab 3c 9e db 81 3e
       0.51431966 0.5229628 0.020906894 0.25362867
000030 0a 9c 6a 3e 8c bd cb 3e 8c 58 76 3f cf 27 5c bf
       0.22911087 0.3979305 0.9622886 -0.85998243
000040 f8 6b 82 be 53 e2 3a be 19 4c e1 be 31 d1 0a 3e
       -0.25473 -0.18250398 -0.4400337 0.13556363
000050 fa 06 45 bf 66 cd db 3d 62 a2 8a 3d 61 aa a2 3d
       -0.7696377 0.10732536 0.06769253 0.079426534
000060 62 5d b7 3e f2 3a d1 be a8 bc 0b 3f 20 de 56 bd
       0.35813433 -0.40865284 0.5458474 -0.05245793
000070 d5 f8 98 3e c2 61 45 3d 93 ae 34 be bb 23 69 be
       0.29877344 0.048188932 -0.1764472 -0.22767536
000080 08 d5 80 be 9d 95 3c 3e 25 98 a9 3d c9 1b 26 bf
       -0.2516253 0.18416448 0.082809724 -0.64886147
000090 24 f4 cb 3e c7 6e 29 3e ba e8 c6 3e 5e f7 aa bd
       0.39834702 0.16546164 0.3884943 -0.08347963
0000a0 f7 1c 7e 3e 61 e0 98 3e 3b 90 90 be c7 a9 33 bf
       0.24815737 0.29858688 -0.2823504 -0.70180935
0000b0 93 2e c2 be d3 d3 8f be be 05 0c 3f bd 48 44 3f
       -0.37926158 -0.28091297 0.5469626 0.7667349
0000c0 c1 f2 c1 3e 8a 3d 3d be 4e 72 e6 be 34 4f 6a bf
       0.3788052 -0.18480507 -0.45009083 -0.91527104
0000d0 86 84 8e 3f f3 c8 24 3f 6f 04 65 bf 6d fe 27 be
       1.1134193 0.64369124 -0.8945989 -0.1640565
0000e0 0e 55 34 bf d3 be 72 3f d7 5f f1 3e 63 38 73 3e
       -0.70442283 0.94822425 0.47143432 0.23751979
0000f0 71 84 73 bd 1d fa 76 3d 7a da 7a 3e 22 fa 40 bf
       -0.059452478 0.06029712 0.24497405 -0.7538167
000100 69 d6 02 bf 9d 90 09 bd bb 4f 94 be 97 65 b2 bf
       -0.51108414 -0.03358518 -0.2896708 -1.3937253
000110 7b 10 0b bf d0 47 11 3f e3 d3 aa be 30 c1 55 be
       -0.5432202 0.567502 -0.33364782 -0.20874476
000120 53 c8 db 3d 7c a5 76 bf 19 f0 33 3e 40 88 ef bd
       0.10731568 -0.9634626 0.17572059 -0.116959095
000130 54 e2 8d bd 26 4f af bc 14 06 dd 3e 8e 60 61 3d
       -0.06927934 -0.021400046 0.431687 0.055023722
000140 44 e1 e2 3e d6 7c a6 bf f8 58 30 3c 52 3f a8 3d
       0.4431249 -1.3006847 0.010763399 0.082152024
000150 21 17 51 be 08 91 a1 3d 6b b0 f6 bd 27 06 09 3f
       -0.20418979 0.07888991 -0.12045368 0.5352501
000160 3a c9 35 be ee d8 fb bb a0 0e bb be 7a db 72 be
       -0.17752543 -0.007685772 -0.36534595 -0.23716536
000170 ec 02 76 3e 0f 91 24 bf ff 6e fb 3e 19 cf 44 3f
       0.24024552 -0.6428384 0.4910812 0.76878506
000180 6d 5c 42 3e 53 35 45 3f c4 77 1e 3d 64 45 83 be
       0.1898057 0.7703449 0.038688436 -0.25638878
000190 89 12 c0 bc 3d 67 b1 be 82 40 11 bd 4e 8d 06 bf
       -0.023446338 -0.34649077 -0.03546191 -0.52559364
0001a0 01 ca 53 3f ed b7 72 be 01 5c 9a 3e ad ce 32 3f
       0.8273011 -0.23702975 0.30148318 0.6984661
0001b0 21 e3 82 bf 60 7a 58 bf 11 84 2b 3f 51 1c c3 bd
       -1.0225564 -0.8456173 0.6699839 -0.09526885
0001c0 ad 3c 17 3f f3 00 3c bc ad f9 a4 3e 85 21 fa bd
       0.5907696 -0.011474836 0.32221738 -0.122134246
0001d0 9d a5 74 be 9e 0a 29 3f 94 d9 08 3e 02 be 09 3d
       -0.23891301 0.66031826 0.1336425 0.03362847

running_var f4 [120]
000000 bb 2a b1 3e 39 bd da 3e 45 fc ca 3e 18 99 bb 3e
       0.34602913 0.4272249 0.3964559 0.3664024
000010 bf 51 9e 3e 4e cb 5a 3e 17 ba 69 3e f1 29 73 3e
       0.30921742 0.21366617 0.22824894 0.23746468
000020 34 88 ab 3e 2b d7 9b 3e cc cf a4 3e d0 19 5f 3e
       0.33502352 0.30437598 0.32189786 0.2178719
000030 78 4b 95 3e bc 16 14 3f 6d 5b 97 3e 69 90 60 3e
       0.2915914 0.5784719 0.2956194 0.21930088
000040 75 04 89 3e 23 e0 81 3e ec 6b 8c 3e 03 80 57 3e
       0.26761213 0.25366315 0.27426088 0.21044926
000050 73 52 99 3e ce 8c 77 3e d8 6e d4 3e 32 cd 67 3e
       0.29945716 0.24174806 0.41490817 0.2263687
000060 d5 0f ad 3e a4 7e 89 3e ee b5 b8 3e 1a e1 d2 3e
       0.3380114 0.26854432 0.360763 0.41187364
000070 74 92 91 3e 1b 8c 96 3e 70 8e 96 3e 76 f1 73 3e
       0.28432047 0.29403767 0.29405546 0.23822579
000080 73 1f 9e 3e 65 c6 d2 3e 07 4d b8 3e 1e ed 31 3f
       0.3088337 0.41166988 0.35996267 0.6950244
000090 13 e0 c3 3e ab 54 e4 3e 58 dc ad 3e 6d 5f f0 3e
       0.38256893 0.44595847 0.3395717 0.46947804
0000a0 be 20 66 3e 82 11 c0 3e cb 02 96 3e 5b 1d b0 3e
       0.22473428 0.37513357 0.29299006 0.34397396
0000b0 84 4a 37 3e b7 f2 c0 3e 99 7c 69 3e c9 0d 61 3e
       0.17899519 0.37685177 0.22801436 0.21977915
0000c0 34 6c ae 3e 44 69 ba 3e d3 d1 b2 3e 26 bd 7c 3e
       0.34066927 0.36408436 0.34925708 0.2468153
0000d0 55 71 8c 3e 17 e3 b7 3e aa 2a 14 3f 2e 52 35 3e
       0.27430215 0.35915443 0.578776 0.1770713
0000e0 5e 06 77 3e 49 d6 b5 3e 6e e7 a6 3e d4 b9 9a 3e
       0.24123523 0.3551505 0.32598442 0.302199
0000f0 4d 36 cd 3e fa da 97 3e 94 8c d0 3e e7 9b 46 3e
       0.4008049 0.29659253 0.40732253 0.1939541
000100 33 4d 4e 3e 5a 2b 4d 3e 89 a5 be 3e 85 2f 96 3e
       0.20146637 0.20036069 0.37235668 0.2933313
000110 6d 10 83 3e e5 b7 75 3e 50 2f d9 3e 9b b1 7b 3e
       0.2559847 0.23995931 0.4241891 0.2457947
000120 ad 3a c9 3e 24 d9 cb 3e f8 f0 6d 3e 5b 61 bc 3e
       0.3930258 0.39814103 0.23236454 0.36793026
000130 07 4e b7 3e b6 6d f8 3e a9 6c 9c 3e cf 8f 0f 3f
       0.35801718 0.48521203 0.3055165 0.5607881
000140 59 d9 a8 3e 00 5c 0c 3f 14 5b 87 3e a1 41 d8 3e
       0.32978323 0.5482788 0.26436675 0.4223757
000150 a7 19 6f 3e e0 3a bb 3e 2a 04 39 3e 51 e6 6b 3e
       0.2334963 0.36568356 0.18067995 0.23037077
000160 6a 53 7e 3e ae 16 bb 3e af 6a 91 3e 2e 83 90 3e
       0.24836507 0.3654074 0.28401706 0.28225082
000170 76 07 92 3e a9 cd de 3e 70 21 01 3f cc 6b 7f 3e
       0.28521317 0.4351628 0.50441647 0.24943465
000180 35 43 80 3e 26 0b ed 3e 61 d0 b7 3e 26 ad 95 3e
       0.25051275 0.46297568 0.35901168 0.29233664
000190 a9 09 81 3e 64 43 8a 3e 84 a7 df 3e 41 99 72 3e
       0.25202683 0.2700454 0.43682492 0.23691274
0001a0 d5 d8 90 3e 65 94 57 3e ce 3e 8a 3e a5 a1 dd 3e
       0.2829043 0.21052702 0.2700104 0.43287387
0001b0 20 2f bc 3e 05 04 a4 3e 28 5d a0 3e 40 6e 9e 3e
       0.36754704 0.32034317 0.31321073 0.3094349
0001c0 80 df 87 3e 52 e4 7c 3e 58 c2 89 3e f3 dd b0 3e
       0.26537704 0.24696472 0.26906085 0.34544334
0001d0 1a d6 61 3e 15 62 83 3e f5 fb 70 3e 54 5f 8f 3e
       0.2205433 0.25660768 0.23533614 0.28002417

weight f4 [84, 120]
000000 b1 19 8c bc fc f1 c3 bc 6a c8 75 3c c4 e8 06 3e
       -0.017102094 -0.023919098 0.015001396 0.1317473
000010 9e 5f c6 bc ad 7a 03 be 0e 95 c3 bd b5 71 32 3e
       -0.024215516 -0.12839766 -0.09549914 0.17426188
000020 18 91 00 be 0f 0b 1e be 12 9c 3d bc b4 96 28 be
       -0.12555349 -0.15433906 -0.011572855 -0.16463739
000030 6d 9b dd 3d 1d c2 ba 3c 6c c1 66 bc 2a 95 5c bd
       0.10820661 0.022797639 -0.014084201 -0.05385319
000040 34 0b 0d bd 4f ce 43 3d 2a ef c9 bd c9 65 20 3e
       -0.034434512 0.047804173 -0.0986007 0.15663828
000050 0b 57 e1 3c 9d e1 5e 3b 89 fe f7 3d e6 1d 36 3e
       0.027507326 0.0034008988 0.121090956 0.17784843
000060 e3 da bb 3d ef 7d 0d be 0c 4c 03 3e 29 9d d9 bd
       0.09172609 -0.13817571 0.12821978 -0.10625679
000070 1e 05 0a be 3a 12 ef bd 48 be 7a 3c 9c 7a 0a 3e
       -0.13478515 -0.11673398 0.015304156 0.13523334
000080 15 61 c4 bc 90 63 8f 3d db 84 11 be e0 08 c7 bd
       -0.023972074 0.07001412 -0.14210837 -0.0971849
000090 74 4d 47 be d9 9d b9 3d 17 41 0c 3e ef 9a 0d 3d
       -0.1946314 0.0906331 0.13696705 0.034571584
0000a0 ee 99 f3 3d b8 e6 5d 3e 44 df bf bd 6d f2 0b be
       0.11894594 0.21670043 -0.093687564 -0.13666697
0000b0 77 a1 db 3c 0a 13 23 be 4a e2 8e 3d 64 20 61 bd
       0.02681039 -0.15925232 0.06976755 -0.05496253
0000c0 85 96 38 3e 84 6d 14 3d 5b ec 58 bd 35 d3 08 3e
       0.18026169 0.036237255 -0.05295978 0.13361819
0000d0 48 c2 2c be f7 5e 28 3e e4 86 01 3e b2 54 13 3e
       -0.16870987 0.16442476 0.12649113 0.14387777
0000e0 4b c6 44 be 74 4e bf bd 9d 1c 89 3d b9 b6 7d 3d
       -0.19216268 -0.093411356 0.06694911 0.061941836
0000f0 8c 65 1b bc b5 87 86 3d f6 55 3f be 37 77 1a 3e
       -0.00948466 0.06568853 -0.18685135 0.1508454
000100 6d 4d a9 bd a8 66 44 bc fe 4c a0 bd 19 19 5c bc
       -0.08266721 -0.011987366 -0.07827185 -0.013433718
000110 29 f4 02 3d 42 04 d3 bd 02 4c b6 3d 8d 07 25 be
       0.03197113 -0.103035465 0.08901216 -0.16116162
000120 c3 bf 41 3a ce 25 0b be 46 58 e4 bd e7 00 db 3d
       0.00073909404 -0.1358864 -0.11149649 0.106935315
000130 86 54 e6 3d e1 24 19 bd bb 48 19 be 5e b1 a6 bd
       0.1124659 -0.037388686 -0.1496915 -0.08139299
000140 87 a0 51 3e 79 54 d9 bd 45 ab fe bd 1d c5 a9 bd
       0.20471393 -0.10611815 -0.12435011 -0.082895495
000150 4b d1 54 bd 8a cd 05 be 7f 6c 8b 3b 87 4d 58 bc
       -0.05195741 -0.13066688 0.004254877 -0.013202078
000160 8e 5b 94 bd 37 84 0e be f9 2b 99 bd 7f 57 83 3d
       -0.07244025 -0.13917623 -0.0747909 0.06413173
000170 7e c0 9e 3c 4c b0 42 3e 91 97 21 be 12 5e e0 bd
       0.019378897 0.19012564 -0.15780474 -0.109554425
000180 88 ee 6f bd 07 2c 65 3d 1f 7d ba 3d 35 e9 99 3c
       -0.05857709 0.05595019 0.09105896 0.01878796
000190 b8 20 11 3e e0 56 a4 3c 80 08 7a 3e 59 ca a2 3c
       0.14172637 0.020060956 0.24417305 0.019871878
0001a0 2f f6 31 be 7f 51 db 3d 7f 20 02 3e d8 6f e1 bd
       -0.17379068 0.107089035 0.12707709 -0.110076606
0001b0 48 b1 7b 3d 4c cf b6 3d 51 23 21 be aa a1 ad 3d
       0.061448365 0.089262575 -0.15736128 0.084781006
0001c0 38 49 fe 3d 8e 38 ea bd 85 b6 2d 3d d3 9f ee 3d
       0.12416309 -0.11436568 0.042410392 0.11651578
0001d0 4b 81 81 bd 49 89 80 3c 81 21 f0 3d 66 fc 17 3d
       -0.06323489 0.015690463 0.1172514 0.03710594
0001e0 f6 af b9 3c 75 82 98 3d ef db 6c 3c e5 12 cb 3b
       0.022666913 0.07446758 0.014456733 0.0061973208
0001f0 47 30 ea bd 05 57 15 be e4 89 39 be 0f 84 fa 3d
       -0.114349894 -0.14583977 -0.18119007 0.122322194
000200 ea 42 23 3c 54 6e ed bd e4 cf 02 bd 5c c8 86 3d
       0.009964684 -0.11593309 -0.03193654 0.06581184
000210 3c 5e fe bd da 36 b2 3d e9 9e d7 3d 10 d7 ea 3c
       -0.124203175 0.08701868 0.105283566 0.028667003
000220 d3 13 ba 3d 5d 50 6b 3d 06 6d 1f bd 15 b7 2e 3e
       0.090858124 0.057449687 -0.038922332 0.17062028
000230 87 ca cc 3c bf 8b 4b 3e d1 08 86 bd 81 bf 09 3e
       0.024998916 0.19877528 -0.0654465 0.13451959
000240 9b 48 fc bd 00 af c0 bd a9 08 9c bd 3f ec ea 3d
       -0.12318536 -0.094083786 -0.07618839 0.114708416
000250 5a e3 00 3e d7 a2 dc 3c 17 29 49 3e e9 9b ed 3d
       0.12586728 0.026933117 0.19644581 0.11602003
000260 43 43 6f bd 81 c3 38 be 0c e6 05 3e c0 60 bd 3d
       -0.058413755 -0.18043329 0.13076037 0.09246969
000270 ab f5 51 be 4c b7 ad 3c 2a f0 1a be 17 fd ad 3d
       -0.20503871 0.021205567 -0.15130678 0.08495539
000280 08 e9 b3 bd b3 0c 3f 3e 1c 26 01 3e 05 68 c9 bd
       -0.087846816 0.18657188 0.12612194 -0.09834293
000290 f8 69 8f bd d5 34 fc 3d 6f 2a 47 3e 0f 2f fa bd
       -0.07002634 0.123147644 0.19449781 -0.12216007
0002a0 d7 8f f9 3d 21 78 5c bd b9 7d b4 3d f0 29 e9 3c
       0.121856384 -0.0538255 0.08813042 0.02846238
0002b0 dd 01 38 3e 42 70 34 3e d4 9d 16 bd 81 f1 7c 3d
       0.17969461 0.17620948 -0.03677161 0.061753754
0002c0 12 a3 aa bd d1 e3 af 3d dd 8c 11 bd 8f 5d 29 3c
       -0.083318844 0.085883744 -0.03553473 0.0103372475
0002d0 37 6e 98 bd 98 7a 8f bd d6 01 30 bd 6c 98 f7 3b
       -0.07442897 -0.07005805 -0.0429705 0.007556012
0002e0 93 81 ba bd 6c 1b 44 3e a9 06 61 3d 1d a5 1d 3e
       -0.091067456 0.19151086 0.054937992 0.15395017
0002f0 36 3a 13 3e 9b 82 2e bc 55 ee 30 be 3a 19 8a bc
       0.14377674 -0.010651256 -0.17278416 -0.016857732
000300 86 09 fd 3d 67 f0 c6 3d ac c6 08 bc 85 03 23 3e
       0.12355332 0.09713822 -0.008348148 0.15919311
000310 68 e3 27 3e 13 3f b9 3d be be f2 3d e8 fe 7f 3e
       0.16395342 0.090452336 0.118527874 0.24999583
000320 01 d7 5e bc 1c 6b 20 be b7 2f b3 bd 35 38 cf 3d
       -0.013601066 -0.15665859 -0.08749335 0.101181425
000330 f7 32 80 3d bc 10 53 be cf 45 78 3d bc 30 09 3e
       0.06259721 -0.20611852 0.06061345 0.13397497
000340 fa 26 89 bd d4 2c 83 bd 56 ed 96 3d 5e aa 55 bd
       -0.06696887 -0.06405035 0.07369487 -0.052164428
000350 d9 90 59 be 74 81 a9 bc 06 c5 73 3c 87 52 9b bc
       -0.21246661 -0.02069161 0.014878517 -0.01896025
000360 a3 a0 ba 3d 96 73 0a 3e d0 1f b8 3d d7 05 96 3d
       0.0911267 0.13520655 0.08990443 0.073253326
000370 7c 7c de bd 94 b7 10 bd 33 e9 a6 3c d5 30 16 3e
       -0.10863587 -0.035331324 0.02037487 0.14667065
000380 34 82 83 bd 90 82 dc 3d 23 f9 ee 3c 50 a8 39 3e
       -0.06421319 0.1076709 0.029171532 0.18130612
000390 d5 5f 04 be 58 d2 53 3d c1 51 0b be 7c 46 06 bd
       -0.12927182 0.05171427 -0.13605405 -0.032782063
0003a0 8e bc 1a be 46 0b 0a be 40 94 aa bd 48 03 42 3e
       -0.1511099 -0.13480863 -0.08329058 0.18946564
0003b0 a0 59 28 be b7 f1 b9 3d 60 e5 b4 3d c9 f4 1b bd
       -0.16440439 0.090793066 0.08832812 -0.038075242
0003c0 4d 4b 80 3d 5d 41 be bd 57 05 c1 bd a1 f0 99 bb
       0.062643625 -0.09289811 -0.094248466 -0.0046978747
0003d0 0d b1 82 3d a5 25 ca bd 50 67 e7 3d 88 a9 20 3e
       0.06381426 -0.098704614 0.11299002 0.15689671
0003e0 ef 7c 2d 3e c3 e2 fb bd 5e d7 42 3e 45 5c 08 3e
       0.1694219 -0.12299111 0.19027469 0.13316448
0003f0 8c 9b 06 bd ad d2 c1 3d 9e 89 09 be ca b1 c8 bd
       -0.032863185 0.09464011 -0.13431403 -0.097995356

bias f4 [84]
000000 7b 61 2f 3a c3 47 aa 3c 7d 11 7d 3c 5a de 3b 3d
       0.0006690246 0.020786172 0.015446064 0.045866348
000010 b4 5b a5 3c fd 6f cf 3b c3 48 0e 3d 66 78 07 3c
       0.020185329 0.0063304887 0.03473736 0.008268451
000020 bc 1c 16 3d e4 c4 bb bb 95 99 0d bd 82 26 10 3d
       0.036648497 -0.0057302583 -0.034570295 0.035192974
000030 55 5e 93 bc 93 1f 01 3d 0a 4d 3a 3c 8b b3 58 bb
       -0.017989317 0.031524252 0.011370907 -0.0033066
000040 79 ca c8 3c ab 12 2d bc 81 f5 7a bb 7b ba b8 bc
       0.024510609 -0.010563533 -0.0038293304 -0.022549858
000050 8d ad 9b bc de a1 7d 3d 6e 27 32 3c 7f b7 19 bd
       -0.019003654 0.061921947 0.010873659 -0.03752851
000060 93 94 94 3a 53 c4 e2 bc c4 7e 12 3d 43 6c 00 bc
       0.0011335782 -0.027681505 0.035765424 -0.007838312
000070 5d 65 0e bc 86 b7 f6 3b 65 5e 8d bb c9 cb 99 bc
       -0.008691159 0.007529202 -0.004314231 -0.01877393
000080 43 69 9d 3a 77 16 f4 ba 05 5f c1 3b af 7e 02 3c
       0.001200952 -0.0018622418 0.00590122 0.007964774
000090 c0 12 c4 3c 6a 45 75 3b c1 68 26 3d 0d ac 2d 3c
       0.023934722 0.0037425407 0.040627245 0.010600102
0000a0 27 08 cc bc 9c 2d 93 3b d8 02 a9 bc b2 5b b2 bc
       -0.024906231 0.004491521 -0.020631239 -0.02177224
0000b0 c8 d0 05 bc 19 40 96 bc 14 80 d1 bb 0e f5 72 3c
       -0.008167453 -0.018341111 -0.006393442 0.014828933
0000c0 01 6b a0 3c a5 13 a0 38 1e eb de bc 5c a6 89 bc
       0.019582273 7.6330536e-05 -0.027211722 -0.01680296
0000d0 5e f4 30 3d 3a f7 dc bc 7a 32 f9 3c df c9 ff bb
       0.043201797 -0.026973356 0.030419577 -0.0078060473
0000e0 b8 e6 9c 3c 7d 48 7d 3c ea 2d 48 bc 95 a2 75 3d
       0.019152984 0.015459177 -0.012217978 0.059969503
0000f0 75 43 a5 bb da 8b c5 bc c3 78 e9 bc aa f8 39 bc
       -0.005043442 -0.024114538 -0.028499966 -0.01135079
000100 0d 77 26 3d a7 0c 6d 3c 05 e2 1d 3c ee 29 39 bc
       0.04064088 0.014468349 0.009636407 -0.011301501
000110 c4 81 3e 3b 86 55 b1 3b e5 f9 6c bc 35 bc 0d 3d
       0.0029069046 0.0054118065 -0.014463876 0.034603316
000120 98 18 dc bb 63 6b 35 bb 59 aa c2 3c e5 5d 31 bb
       -0.006716799 -0.0027682416 0.023762869 -0.0027064022
000130 0c 24 64 3c de cf 21 3d 65 fd 01 bc e0 93 dd 3c
       0.01392461 0.03950488 -0.007933949 0.027048051
000140 f8 a0 2b 3c 16 80 3a bc 8c 32 ec 3c ac e0 08 bc
       0.01047539 -0.011383077 0.028832696 -0.008354347
