garment_classification/model/top.pt (torch, 276631 bytes, 22 tensors)

weight f4 [6, 3, 5, 5]
00000000: 0fe3 203e 0a5c ffbc 58d8 2abe 18af 05be
00000010: 52fb 5fbe 980e 283e d7f3 19be ea51 ebbd
00000020: 6253 1cbe 6a9a a4bd f4dd ecbd d13d 303e
00000030: 665e 1c3e 11ff f5bc 0e84 0cbd 3a1e 733d
00000040: e16b 373d f794 223e f3cf fa3d 4508 cebd
00000050: 5835 8abd 3f72 d8bd 23c6 cb3d 499f 223d
00000060: 9abe 0ebc 1623 b7bc 3512 453d 84d2 a93b
00000070: ae80 f6bd c504 82be 48cf 2ebe d6bc 263d
00000080: 78f8 6cbd 177f 2abe c702 00bd 774d 9b3d
00000090: 88a3 a03d 39ba 00be 59c1 d33d 0512 f2bd
000000a0: 6de9 1cbe eb04 c33c a074 c13d 849b a43b
000000b0: bad0 0d3e db02 953d a078 883d c27e b33d
000000c0: 570f f63d e756 903d 202c 67bd 2d4f e63d
000000d0: ef4c 36be 6396 5abe 09ce 29bd 7e73 a53b
000000e0: 2e7e 92bd 2c66 6dbd 1dc3 2cbe 653c 103d
000000f0: ee07 c7bd 0dfa 083e bd89 143c 761f 053e
00000100: 2ee5 e3bd aa44 5cbd ea4b 7c3d 8dd3 fb3d
00000110: c2b9 083c 1027 cf3c 5824 193d ecf9 b3bc
00000120: 8d84 0fbd ace0 f0bb 41d6 b83a 2b20 a13d
00000130: 1926 8bbc d36b 59bb 7d31 64bd 63dd 08bd
00000140: c135 793d b0cf 973c df47 5e3e 0a6e 503e
00000150: ed5a 50bd b832 b6bd 6a58 383c 1ffa ff3d
00000160: a8f0 de3d 298b 11be d879 02bd 105e 073e
00000170: d9bd 2abd a898 2a3e 76ed 8bbc 0198 b23c
00000180: fa5c 0fbe 07f3 83bd bd2b e2bd 281b 0b3e
00000190: 42b3 52be b7a9 ec3d 2072 e43d af7d 12be
000001a0: 3445 b1bc fcc0 7a3c 6a34 163e 015c 03b9
000001b0: 1480 253e 379f b53d 559d 79bd 4445 2fbb
000001c0: b7c5 ad3c d002 a53d 0ff8 d73c a164 f0bd
000001d0: 4011 7f3d 2527 17be 05e9 dc3c 8901 843d
000001e0: 0b25 0bbe f028 a63d 2dc4 163e f46c 83bd
000001f0: 3dc4 debd d9b8 e9bd 286e 42bc c0f2 873d
00000200: 367e 33bc 8565 6e3d 582c 463d cc43 e1bd
00000210: b808 4d3e 4b83 24bd dc3e 7abd 4cec 8a3d
00000220: 44d7 80bc e7c4 183d 0b7a a23d c6e6 f93d
00000230: f229 cc3d 2058 383e c6dd 903d d93f 93bc
00000240: 4034 67bd b68c 183e d55d 253d daca 11be
00000250: 3fdc 50bd 4d77 85bc eca1 58be acf8 d6bd
00000260: 4fb4 f1bd df27 e13d 1c3e b83c b990 553c
00000270: 102d 15be 454b 26bc dbcf 113e 3bc1 a0bd
00000280: 1ea9 07be 53fb 183e 9ffb a03d ff71 a73d
00000290: 2621 1fbe 3056 bc3d 19dc 163e ea0a 7b3d
000002a0: 5121 e53d 25eb 853a 2f3a aa3d 30b3 9abd
000002b0: 3290 c83c 8708 8bbb cff9 cebd 1316 2cbe
000002c0: 71e1 15be 8a09 32be 89a2 aa3d 0deb d43d
000002d0: 494c fabd 07da 123e 5ffc c43d f320 6bbd
000002e0: 5a13 ea3d 1b34 d23d 9443 28bd 58f5 8c3d
000002f0: e816 d8bd a6c3 993c dfff a0bb 4658 073e
00000300: 89a3 dbbd 9ffc 0a3e 3bf8 293d 1ab6 febc
00000310: 6bba 44bb 59b9 58bd 14a2 9dbd 393f 2f3d
00000320: 5fad d4bd c39d 7ebe cf62 44be e7a6 e33d
00000330: 8854 28bc 3794 f7bd ff56 0cbe dd22 493c
00000340: d609 063e 4be1 753d ebad 093e 73d3 1fbd
00000350: 8336 243e c534 cabd 8b69 6c3d e143 e03d
00000360: 23f4 12bd 88a2 1d3e 40ef c6bd 7b6b 89bd
00000370: e945 083e 6d2b 6c3c 4a81 ae3d 30ca 40bb
00000380: 2613 d0bc b337 74bd 9a40 a6bd f22c f63d
00000390: 1b86 19be 671b 0ebe eaae 07bd 9fdf a4bd
000003a0: d3b0 d93d 1c17 713d cd5a d3bd e66c 443e
000003b0: f4c6 9a3d 8ce2 f3bd e9e2 843d 033f 06be
000003c0: f7c2 cfbd 022b 72bd 22e4 e4bd 3425 9dbd
000003d0: e3fb ac3d 9230 0abe f2da 8b3c 4478 eb3d
000003e0: 8d8f b03a 7d05 b73d 682b 533d b1b9 1ebe
000003f0: c36f ebbd e14b 25be c299 7dbe 3ab4 143e
0.15711616 -0.031171817 -0.16684091 -0.13055074 -0.21873215 0.16411817 -0.15034424 -0.11490233
-0.15266183 -0.08037265 -0.11565772 0.17211081 0.15270385 -0.030028852 -0.034305625 0.059355
0.044780616 0.15877138 0.122466944 -0.10060171 -0.06748456 -0.10568666 0.09949901 0.039702687
-0.008712435 -0.022355597 0.048113067 0.005182566 -0.120362625 -0.25394264 -0.17071259 0.04070743
-0.057854146 -0.16650043 -0.03125265 0.075831346 0.07843691 -0.12571038 0.103396125 -0.11819843
-0.1532342 0.023806056 0.094460726 0.0050234217 0.13849154 0.07275935 0.066636324 0.087644115
0.120146446 0.07047825 -0.056438565 0.1124557 -0.17802785 -0.2134643 -0.041456256 0.005049168
-0.07152973 -0.057958767 -0.16871305 0.035213847 -0.09718309 0.13376637 0.0090660425 0.13000283
-0.11127697 -0.05377642 0.061595835 0.122962095 0.008345069 0.025287181 0.037388176 -0.021969758
-0.03503852 -0.0073510017 0.0014101939 0.07867464 -0.01698594 -0.003317584 -0.05571126 -0.033414256
0.06084228 0.01853165 0.21707104 0.20354477 -0.050867964 -0.088963926 0.011251548 0.12498879
0.10885745 -0.14213242 -0.03185448 0.13219476 -0.04168496 0.16659796 -0.017081004 0.021800997
-0.14000311 -0.06442838 -0.11043499 0.13584578 -0.20576194 0.11555808 0.1115458 -0.14305757
-0.021639444 0.0153048 0.14668432 -0.00012527408 0.16162139 0.088682584 -0.06094106 -0.0026744166
0.021212442 0.08057177 0.0263634 -0.117379434 0.06227231 -0.14761026 0.026966581 0.06445605
-0.1358835 0.08113277 0.14723273 -0.064172655 -0.10877273 -0.1141221 -0.011867084 0.06638098
-0.010955384 0.058202285 0.048382133 -0.10999259 0.20022857 -0.040164273 -0.061095104 0.06783351
-0.015727647 0.037297156 0.07933434 0.1220222 0.09968938 0.18002367 0.0707355 -0.01797478
-0.056446314 0.14897427 0.04037269 -0.14237538 -0.050991293 -0.016292239 -0.21155518 -0.10496649
-0.11801969 0.10993933 0.022490554 0.013034993 -0.14567971 -0.010149782 0.14239447 -0.07849356
-0.13248107 0.14939623 0.07860493 0.0817604 -0.15539989 0.091961265 0.14732398 0.061289705
0.11187995 0.0010217173 0.08311879 -0.075537086 0.02448282 -0.00424296 -0.10106241 -0.16805296
-0.1463678 -0.17386451 0.08331782 0.10396395 -0.122215815 0.14340983 0.096184485 -0.05740447
0.11429472 0.102638446 -0.041080073 0.06882733 -0.10551244 0.01877005 -0.0049133147 0.13217267
-0.10724551 0.1357293 0.041496497 -0.031092692 -0.003001834 -0.052911136 -0.076969296 0.042784903
-0.103846304 -0.24864869 -0.19178317 0.111158185 -0.01027406 -0.120888166 -0.13705061 0.012276378
0.1308969 0.06002931 0.1344525 -0.039020013 0.1603642 -0.09873346 0.05771784 0.10950447
-0.03587736 0.15394032 -0.09713602 -0.067099534 0.13307919 0.01441465 0.08520754 -0.0029417388
-0.025399756 -0.05962343 -0.081177905 0.120202914 -0.14992563 -0.1387764 -0.033125795 -0.08050465
0.1062943 0.05885993 -0.10320053 0.19182166 0.075574785 -0.11908445 0.06488592 -0.13109975
-0.101446085 -0.059123047 -0.111763254 -0.076731116 0.08446481 -0.1349509 0.017072175 0.11497548
0.0013470516 0.08936594 0.051555067 -0.15500523 -0.11495926 -0.16142227 -0.24765685 0.14521876

bias f4 [6]
00000000: 3b93 27bd 1ff3 abbc 8b5b dfbc ff3a 2c3c
00000010: fead 903d cdf1 18bd
-0.040911894 -0.020989953 -0.02726533 0.010512113 0.070644364 -0.037339974

weight f4 [6]
00000000: b9cd 8f3f 8f44 433f bfbd 873f 5614 783f
00000010: eb2a 6b3f 3419 853f
1.1234657 0.7627649 1.0604781 0.9690603 0.9186236 1.0398316

bias f4 [6]
00000000: 4515 a7be 13c2 f8bd 0346 693d 14f9 90be
00000010: ad84 ff3d d6e6 f2bd
-0.32633415 -0.12146392 0.056951534 -0.28315032 0.12476478 -0.11860435

running_mean f4 [6]
00000000: fcde a33e 8aa5 d8be 0828 1f3c 1ed3 853f
00000010: acc2 f73d 76ff df3d
0.3200606 -0.42313796 0.009714134 1.0455053 0.120976776 0.10937397

running_var f4 [6]
00000000: 43a0 273f c0a1 1f3f 3bd5 413e 5f7b 4340
00000010: d191 003f 3ee7 203e
0.65478915 0.62356186 0.18928997 3.054405 0.502225 0.15713212

weight f4 [16, 6, 5, 5]
00000000: 4ce9 0b3d c737 063e 081e ff3d fe0a 333d
00000010: 82b6 ccbd 99a9 49bd 8f2f dc3d fd12 5e3d
00000020: 765c be3d aaa0 013d 4729 6cbc 0633 8d3b
00000030: 4278 0dbe a76c ebbd 013a b2bd 0497 42bd
00000040: 5d09 bd3d d094 0bbe 8246 2abe 6762 29bd
00000050: 3b74 8ebc cb5f 1b3d b13e 673d 6ef0 a83c
00000060: 4f91 81bd 3d47 5f3d 2b8c 62bd 11d6 d5bc
00000070: f719 fa3d e7d8 563b 4ebf 37bc 4203 353c
00000080: 9576 57bc af0f 42bd 12b2 a4bd 1da7 b63d
00000090: e668 c2bd cb6b 11bd abe1 623d 5657 04bc
000000a0: 1f55 ccbd 3259 68bc 7ccd 813d 7054 f6bc
000000b0: ea20 bebc 10b5 93b8 8a8a 483d 312e bdbd
000000c0: b635 5b3d 5fdf cdbd 0aa1 7dbe 9fc4 13be
000000d0: df15 013d 5f23 d43d 220a 90bd 5a62 8a3d
000000e0: b2fc e93c 4c74 ec3d 5e30 353d 0cdd a73c
000000f0: 75eb 03bd 9441 7d3a 8d1e 96bd 0eed 993c
00000100: f49f 27bd 42c0 5fbd 689d 12be f5f4 07bd
00000110: 063d c33d 4f7d 31bd e8a9 de3c 975c 91bc
00000120: 9470 f43c 80d9 af3d a0d7 bb3d 7615 bf3d
00000130: ca54 c63d b023 e33d 5687 9dbd e2a3 61bc
00000140: e5ea acbd bbc3 b13d a461 873d 7b6b 91bc
00000150: 1e1e d5bd f3ff cebd 82d9 903d 4a0a 6cbd
00000160: f5db 073c ee06 95bd 42a5 9dbd 4449 f3bc
00000170: 25b0 963d 9d60 293b edaf c5bb 4390 813d
00000180: a4bf f83c 0268 88bb 8e70 9c3d ffab e03d
00000190: 8b0b a93b 3480 03bd 123b b53b 4af3 1f3b
000001a0: 1f12 88bd 5811 6bbd 349f 76bd fb23 f8bb
000001b0: 6c7b cebc 0ad5 033d ae2b 98bc 28d7 c7bd
000001c0: 4035 05be f8b4 1bbd 9425 5f3d 7857 31bd
000001d0: 8429 42bd 03c5 783b 326c 6abd 728e c63d
000001e0: 58b0 a3bd fadd 51bc 085a 55bd 2e24 eb3d
000001f0: 235c 34ba ceea 623e 1422 f43d 40c7 28be
00000200: 95f0 97bd 1b62 e6bd 7854 a43d 3aeb 0b3d
00000210: 57cf 02be 83d1 7c3d 3abc 7cbd 03ac bf3d
00000220: 1924 9fbc 9c96 37bd aabd 2a3e 3968 043d
00000230: 4d04 97bd 9423 dcbd 46e7 12be 4b49 a0bd
00000240: c24f d23d 8467 6ebd 5dd3 863c f001 1a3d
00000250: f352 5c3c b1fd 603d e3da b7bd 9de0 603c
00000260: 0b0d 91bd ec39 733d b34f 5d3e 6024 febb
00000270: 9377 98bc 3cc3 123d 0c67 953d cfa1 583e
00000280: 25b4 91bd 561b 91bd 9618 63bc 026c 90bd
00000290: 1c1c ba3d 3913 28bc 729a 93bd a065 c23a
000002a0: 7e64 8fbd 1643 cebd 4ae6 883d a17b 44bd
000002b0: 1396 6fbd 8465 ba3d c551 d7bd 8ad0 a2bd
000002c0: 08b8 563d 9ef5 f2bc 4be2 49bd d5c3 74bd
000002d0: 2c04 aebd 56ea 2a3d 62b4 a8bc aab0 c4bd
000002e0: e81f c0bd 5d36 1a3d d885 ec3c fdd2 47bc
000002f0: 9d3a acbd 44b8 b13d f054 bd3c ce57 6abd
00000300: d69c a6bc cea1 17bd c05f 7bbd 29b3 863d
00000310: 0324 3e3c e36a 913d 00a7 09bc 8ba5 6bbd
00000320: 3ba2 d8bc 11b1 81bd 6631 e43b be9b 4fbd
00000330: e508 ab3d c508 d73d a31f 003c 9269 f03d
00000340: 10ef 2d3d 4c18 81ba e953 2f3d 6577 7dbd
00000350: 87f6 8b3b cac2 35bd 6c19 3ebd c1ab 41bd
00000360: 5f20 10be c374 173a 0ace dbbd 75dc 473d
00000370: 53e7 033e 9181 16bd fbdd cb3c daf1 95bd
00000380: 2be9 a0bd 8747 f13a b76c 1e3e 686b df3c
00000390: cc3c ebbc 3b7e ee3d aa52 b53c cd39 eebc
000003a0: b724 ea3d 58a2 ddbc 575e a53d 4b00 c5bd
000003b0: af77 ac3d 140a 113d f3ff a43d 6564 06bc
000003c0: e112 d9bd 8b98 7abc 030a 113e a768 59bc
000003d0: ed0c cbbc aef7 7a3b 9857 45bd 455f 98bb
000003e0: 257f 72bc 243c b23c 3e3a edbd bbea 1cbd
000003f0: 7b26 82bd b221 b0bd d26e 46be 4b72 833d
0.034158036 0.13107215 0.124569 0.043711655 -0.09995748 -0.049234007 0.107512586 0.054217327
0.09294979 0.03164736 -0.014414138 0.004309061 -0.13815406 -0.11495333 -0.087024696 -0.0475073
0.092303015 -0.13630986 -0.16628459 -0.04135361 -0.017389407 0.037933152 0.05645627 0.020622458
-0.063265435 0.054511297 -0.055309456 -0.026103051 0.12211984 0.0032783092 -0.011215044 0.01104814
-0.013150831 -0.04737824 -0.08041777 0.08918593 -0.09492664 -0.03550319 0.055390995 -0.008077463
-0.09977173 -0.014181422 0.06338021 -0.03006956 -0.023209054 -7.043232e-05 0.048960246 -0.09237326
0.05351802 -0.1005237 -0.24768463 -0.14430474 0.031515 0.10358309 -0.07033183 0.0675704
0.028562877 0.11545619 0.04423558 0.020491146 -0.03220697 0.0009660956 -0.07330046 0.018789794
-0.040924028 -0.05462671 -0.14317858 -0.033192594 0.09533124 -0.043332394 0.027180627 -0.017744346
0.029838838 0.08586407 0.091719866 0.09330265 0.09684141 0.11090791 -0.07691829 -0.013771983
-0.0844324 0.08679911 0.0661042 -0.017751446 -0.10406135 -0.10107412 0.07072736 -0.057627
0.008292188 -0.07276712 -0.07697536 -0.029698022 0.07357816 0.002584494 -0.006032935 0.06326344
0.030364819 -0.0041627893 0.076386556 0.10970306 0.0051588467 -0.032104686 0.0055307234 0.0024406486
-0.06644081 -0.057389587 -0.06021042 -0.0075726486 -0.025205337 0.03218559 -0.018575516 -0.09757835
-0.13008595 -0.038014382 0.054479197 -0.043296307 -0.047402874 0.0037959225 -0.05723209 0.09695138
-0.07992619 -0.012809271 -0.052087814 0.1148151 -0.00068801845 0.22159883 0.119205624 -0.16482258
-0.07418934 -0.11249181 0.08023924 0.034159876 -0.12774406 0.061723243 -0.061702944 0.093589805
-0.019426392 -0.044821367 0.16673914 0.032325957 -0.07373867 -0.107489735 -0.14346036 -0.078264795
0.10269119 -0.05820419 0.016458208 0.037599504 0.013447511 0.05492944 -0.08977296 0.013725427
-0.07082566 0.05938141 0.21612434 -0.007755801 -0.018611705 0.03583072 0.07295045 0.21155475
-0.07114438 -0.07085292 -0.013860842 -0.07051851 0.09087393 -0.010258489 -0.072071925 0.0014831312
-0.07001589 -0.100713894 0.06684549 -0.047969464 -0.05849273 0.09101394 -0.10513643 -0.07949932
0.0524216 -0.029658135 -0.049288075 -0.059757072 -0.084968895 0.041727386 -0.020593826 -0.096040085
-0.09381086 0.0376495 0.028872415 -0.0121963 -0.08409617 0.08677724 0.02311179 -0.057212643
-0.020338457 -0.037019543 -0.06137061 0.06577141 0.011605266 0.07100465 -0.008401632 -0.05753092
-0.026444545 -0.06332601 0.0069638966 -0.050685637 0.08351306 0.104997195 0.007820043 0.11738886
0.042464316 -0.000984916 0.042804632 -0.06188144 0.0042713317 -0.04437522 -0.046410963 -0.047282938
-0.14074849 0.0005777592 -0.10732658 0.04879423 0.12881212 -0.036744658 0.024886122 -0.0732152
-0.07856973 0.0018408158 0.15471159 0.027272895 -0.028715514 0.1164517 0.022134144 -0.029080296
0.11432784 -0.02705495 0.080746345 -0.096191965 0.08421265 0.035410002 0.08056631 -0.008202647
-0.10599304 -0.015295158 0.14163975 -0.01326958 -0.024786437 0.0038294601 -0.04817924 -0.004650029
-0.014800821 0.021757193 -0.115833744 -0.038309794 -0.06354996 -0.08600177 -0.19378212 0.06418284

bias f4 [16]
00000000: 3300 94bc d16d bc3c 6414 0fba c555 8cbc
00000010: d0c0 953c 60f9 23bd f685 993c cea2 853c
00000020: 09e3 a23b b00f f43a 58f6 c13c 1a15 38bc
00000030: 2e84 06bc a043 0d3c 5fe2 75bd df42 8c3c
-0.018066501 0.023001583 -0.00054580555 -0.017130742 0.018280417 -0.040032744 0.018740635 0.016312983
0.0049709124 0.0018620398 0.023677036 -0.0112355 -0.008210225 0.00862208 -0.060030337 0.01712173

weight f4 [16]
00000000: c8b8 783f 7acf 663f 89dc 6e3f 0788 723f
00000010: ed2b 673f 02fa 843f 7e36 8f3f db9f 7c3f
00000020: 8b77 933f ecda 683f 7aa9 753f cae8 713f
00000030: 02bc 6c3f ea44 843f 2762 7a3f a2fe 853f
0.97156954 0.90160334 0.9330526 0.9473881 0.903014 1.0388796 1.1188505 0.9868142
1.1520857 0.9095905 0.95961726 0.9449583 0.9247438 1.0333531 0.9780602 1.0468333

bias f4 [16]
00000000: 29ff 8ebe 9a4b eebd f361 4cbe f391 33be
00000010: e232 00be 53a2 f2bd ffe5 67bd b2e2 84be
00000020: e9d4 8cba e3be 17be 6f04 03be adf1 8bbe
00000030: f397 3bbe 9b9a 14be c8f1 51be b3fc a8bd
-0.27929047 -0.116355136 -0.1995924 -0.17536144 -0.1251941 -0.11847367 -0.056615826 -0.25954205
-0.0010744605 -0.14818911 -0.1279466 -0.2733282 -0.18319683 -0.14512102 -0.20502388 -0.082513236

running_mean f4 [16]
00000000: 97d1 c0be b0ce 15be f09a c33a 5b9f 2cbe
00000010: aef7 47be 6762 95be 4512 d9be d61c d43e
00000020: 4451 e3be 6cbf 2fbd 313a 0dbe 5a42 4b3e
00000030: 7694 dcbe 7c92 3bbe e510 9ebe 7d76 42be
-0.37659904 -0.14629626 0.0014923494 -0.16857664 -0.19528076 -0.29176638 -0.4239675 0.4142825
-0.44397938 -0.042907164 -0.1379173 0.1984953 -0.43082017 -0.18317598 -0.30872265 -0.18990512

running_var f4 [16]
00000000: dca7 863e e34a 543e ad2d 0f3e fd8f 4c3e
00000010: ccdb 7e3e e926 8e3e 3f39 9d3e e728 463e
00000020: c4b6 bc3e 8bdd 773e 1a05 753e 0bc6 7c3e
00000030: 9e89 9b3e 4a4a 2f3e 93e7 3d3e 7e74 723e
0.26299942 0.20731692 0.13982268 0.19976802 0.24888533 0.2776406 0.30707738 0.1935154
0.3685819 0.24205606 0.23927727 0.24684922 0.3037843 0.17118183 0.1854537 0.2367725

weight f4 [120, 16, 5, 5]
00000000: 0efa ea3b 2dec 33bd 1c54 78bb 64cd 013b
00000010: fb7f 1a3d d2f8 aebd 5293 5b3c 0224 593d
00000020: 9b2f 203b 4e65 20bd 07d3 a9bc 8859 ac3c
00000030: 53cb 81bc b8af 813d 4c89 82bc 7148 da3c
00000040: e8c7 d9bc 658a 2e3d 5a11 0dbb 6843 1cbd
00000050: 919a 9c3b 2c48 3a3d 04b9 743d e956 18bd
00000060: 3b94 83bd e680 043c 4e44 753b 3328 3bbd
00000070: 81c0 0a3d 17d5 f83c b3bb eebb b920 e73c
00000080: c892 a1bc c97b a2bc e30f 0abd ee00 093c
00000090: 1a9b ce3c d42a 43bc 47a9 1abd 5d78 d9bd
000000a0: fb7c b1bb c1a7 243c 5776 5a3b 8e03 b93c
000000b0: 2593 00bb 6363 183d 5a1c f1bc 806c 053d
000000c0: 1cb5 223d 8ca2 9d3c 997f 81bd 35b6 a53c
000000d0: 3ef7 6fbc b9ad 893c 52d7 adbc 8d1c cc3d
000000e0: 472f 97bc 7e45 5cbd bb81 8b3a 313c 6abc
000000f0: 3a4d 3abc 86c9 c53c d182 5dbd 9fa0 e73c
00000100: ff31 063d f080 3c3d a9de d8bb 3fc4 bebd
00000110: 3dc0 15bc d91e 413c 7347 4bbd 9c94 053d
00000120: 5109 d7bc 6b89 c73c f0af 54bd ccef 5f3d
00000130: 08c8 9139 0f6d fabc 9ced 83bd f3b1 623d
00000140: a312 923a c20d cdbc 3036 17bd 57f6 52bc
00000150: 49bc 32bc 9b56 a7bd bd07 46bc 809f 35bd
00000160: c18e ff3c c942 88bd 7858 49bd ea09 b3bc
00000170: 4965 f23c 99b8 96bc 5b08 9abc 75f0 8f3c
00000180: e4a3 983c 0204 163d 003b 283d 52dc 18bd
00000190: fe2b e03c 9442 bd3c c2f6 18bc 23e8 063e
000001a0: 6aac b5bc a4ef 0bbc 8096 aabc 97f0 92bc
000001b0: 0537 9b3d 0ac4 e53c f57c 53bd f8f9 cc3b
000001c0: b9e2 b6bd 0802 28bd 0f1e 423d 01f4 733b
000001d0: 832e 153d e335 52bd 4589 70bb 5196 843d
000001e0: 53e4 dc3c afc1 3a3d 592d 79bd 7971 86bd
000001f0: 1375 ffbc a9ac dd3d 3aca 8abc ccad 51bd
00000200: 1cb1 3bbe 271a 71bc 281e 9abc 7daa c33d
00000210: 5afe 463d fcf4 d33c 19ba 95bc 5057 3abd
00000220: 14b3 bc3c 4e3e 56bd ba6e f0bb 05f5 babb
00000230: ff76 203d 5df2 6dbd 3b18 0dbd 5de0 313d
00000240: a210 0c3d b019 86bb c02b 613d c726 55bb
00000250: c193 4c3d 6e87 be3c f09c 33bd 3f73 b23c
00000260: 3f2c 4d3d 034f 04bd a45c 2e3d 12c4 37bd
00000270: 0e96 fdbc 6d3d 47bc d97e 16bd 24f1 6fbd
00000280: 4d2a c33c 6363 b8bc d5ff a1bc 6e56 d93a
00000290: 09ef 77bc 6bc5 4d3d cc10 43bd 62d9 15bd
000002a0: f4fc 343d 33a6 8b3d c219 3cbc fc6a a5bd
000002b0: 8664 b3bd e284 bbbc c52b a83c bafb 763c
000002c0: d90b 853d bf0e 3f3d 1628 0abd 8aea ed3b
000002d0: 1b0e 793b bd03 b33c 549e 6d3c b190 afba
000002e0: 5430 6d3c ff21 f53c 5072 963c e545 473d
000002f0: f48f ea3c 992a 3d3d 8824 ecbc 2a1c 943c
00000300: 9149 ab3c 3df9 b33c 0e4d 50bd 6177 843d
00000310: d402 653d daa4 bd3c ca17 913c 0aca a5bd
00000320: aa75 6b3d f292 a23c 2447 d9bd f380 a1bd
00000330: 8b3e 1d3d e99d 6b3d a434 73bd 7f4b 3a3d
00000340: 7e28 ab3d 1a76 173d a4ca 433d db13 53ba
00000350: 7b24 143d 50f6 0f3d 1b3f 19bd f4d9 8dbc
00000360: 1495 b93b 5e6d 583d a1fc fabc cc69 f3bc
00000370: 37a6 623c 40b4 093b b352 d53d 0ec5 2d3d
00000380: 51a0 66bd ac59 d63c d93f 90bd 1a5a 86bd
00000390: 6d22 92bd 4bcb b33c fe9d b73c 645c 613d
000003a0: 3a46 b03d bd99 f0bc be43 b6bc 6e0b 933d
000003b0: 706e adbb 3de3 6f3d 40b7 76bc 5e57 7abc
000003c0: 7ec9 dc3c 50bb f33c e516 ca3c 3806 043d
000003d0: e6a6 323d 5846 beba 58b8 e43c a700 d83c
000003e0: 287c 483c 7bb7 453d 068c 693d 0182 ecbd
000003f0: 9a30 ac3c f03e f53d feed 34bd a0de 2abc
0.007170922 -0.043926407 -0.003789193 0.001980626 0.037719708 -0.085435525 0.013401823 0.053012855
0.0024442438 -0.03915911 -0.020730508 0.021038786 -0.015844023 0.06332344 -0.015934609 0.02664587
-0.02658458 0.042612452 -0.0021525235 -0.03815022 0.004779168 0.045478985 0.059746757 -0.03719226
-0.06424757 0.008087372 0.0037424746 -0.045692634 0.033874992 0.030375047 -0.007285559 0.028213846
-0.019723311 -0.019834416 -0.033706557 0.008362038 0.025220443 -0.0119120665 -0.03775909 -0.106186606
-0.00541651 0.010049761 0.0033334696 0.022584703 -0.0019618955 0.037204158 -0.029432464 0.032574177
0.0397235 0.019242547 -0.063231654 0.020228485 -0.0146463495 0.01680647 -0.021220837 0.09966383
-0.01845516 -0.05377721 0.0010643521 -0.014296577 -0.011370951 0.024143945 -0.054079834 0.028274832
0.032762524 0.046021402 -0.00661834 -0.09314775 -0.009140071 0.01178714 -0.049628686 0.032612428
-0.02624956 0.024357518 -0.0519256 0.054672047 0.0002780559 -0.030569581 -0.06441805 0.055345487
0.001114447 -0.025030974 -0.03691691 -0.012876115 -0.0109091485 -0.081708156 -0.012086806 -0.044341564
0.031196 -0.06653363 -0.049156636 -0.021855313 0.029589312 -0.01839857 -0.018802812 0.017570714
0.018632837 0.036624916 0.04107189 -0.03731949 0.027364727 0.023103036 -0.009336175 0.1317449
-0.02217694 -0.0085410215 -0.020823717 -0.017936988 0.075788535 0.02804758 -0.05163284 0.0062553845
-0.08929963 -0.041017562 0.047391947 0.0037224295 0.03642131 -0.05132092 -0.0036702913 0.06473983
0.026964342 0.045594867 -0.060834263 -0.06564612 -0.031183755 0.10823948 -0.016942132 -0.051191136
-0.1832928 -0.014715708 -0.018813208 0.095540024 0.048582412 0.025873654 -0.018277215 -0.045493424
0.02303461 -0.052305512 -0.0073374184 -0.005705478 0.039175984 -0.058092464 -0.034446936 0.04342686
0.03419555 -0.0040924177 0.054973364 -0.0032524334 0.049945597 0.023257937 -0.04385084 0.02178347
0.050091024 -0.032301914 0.042568818 -0.04486472 -0.03095534 -0.012160641 -0.036742065 -0.05857958
0.023823882 -0.022508329 -0.01977531 0.0016581544 -0.015132674 0.0502371 -0.04762344 -0.036584266
0.044186547 0.06818809 -0.0114807505 -0.08077046 -0.08759408 -0.022890512 0.020528683 0.015074665
0.064964004 0.046644922 -0.033729635 0.0072606253 0.0038002792 0.021852368 0.01450308 -0.0013394562
0.014476854 0.029923437 0.018365055 0.04865064 0.028633095 0.046183202 -0.028826013 0.018079836
0.020909103 0.021969432 -0.050854735 0.06468082 0.0559109 0.023149896 0.017711539 -0.080951765
0.05748526 0.01984546 -0.10609272 -0.07885923 0.038389724 0.05752364 -0.059376374 0.045482155
0.08357333 0.036977865 0.047800675 -0.000805197 0.036167603 0.03514701 -0.037413698 -0.017315842
0.0056635235 0.052838676 -0.030638041 -0.029713534 0.013833574 0.0021011978 0.10416164 0.042424254
-0.056305233 0.026165806 -0.07043428 -0.06560154 -0.071354724 0.021947524 0.022414204 0.05501975
0.08607145 -0.029370183 -0.022249099 0.071799144 -0.005292706 0.05856632 -0.015058339 -0.015279619
0.026951548 0.029752403 0.02466912 0.032232493 0.043616198 -0.0014516814 0.027919933 0.026367499
0.012236632 0.048270684 0.057018302 -0.11548234 0.021019269 0.11974895 -0.04417228 -0.0104290545

bias f4 [120]
00000000: b0a9 b2bb 704a b5bb bc7e 553c 6935 28bb
00000010: 26d8 e339 1a94 153b 4f19 543b f610 1739
00000020: 2f88 27bc 1356 93bb 0891 efbb 6c4d 793a
00000030: 7d36 33bc 3798 093c 2ae9 f6b9 62c0 7bbb
00000040: 8cf4 2c3b 6ac2 f03b 6e6c 983c 4c97 283c
00000050: b842 7abb 91f5 ad3b 2394 d43b 3d16 0c3b
00000060: a177 e638 fa8c 363b 76f9 d9bb f043 453b
00000070: 78ec b7bb 7825 a1ba e40e d43b 93d5 ae3a
00000080: f4d0 2d3c fc0b aaba b582 aa3a 91ae a7bb
00000090: 1db4 99bb 6b4e e7bb 811e c7ba e731 4b3b
000000a0: eb83 5bba a0df 85bb 33d4 3eba 8ce7 d23a
000000b0: 12f6 7fbc 84ec 873b d57f 4cbb e11a 44bc
000000c0: d31a a2bb 8d17 373c dd07 84bb 494d fe3a
000000d0: 98c7 24bb 0301 c23b 5310 4bbb 050b 153c
000000e0: 047c fc3b 3a85 e83b da4e 2e3b fe50 67bb
000000f0: a690 8b3a c659 0fbb a1ee 88b9 6759 0aba
00000100: 5576 15bc df37 90bb 6078 a5bb 30fe f93b
00000110: 66e1 a7b9 ee96 21bb 9fc3 0fbb 1678 5a3c
00000120: f80f cb38 285d 963b 772e d63b 3010 023c
00000130: 04b6 03bc 0f7f 0cbb aae1 c0ba a195 46bc
00000140: b990 a83b 1711 a4bb 922d 563b 1efa 623b
00000150: 0f18 16bb b0e8 94bc 6ba4 bfbb 0417 b53a
00000160: a01e a5bb c8f7 02bc fbba 7abb 24ed 3fbb
00000170: 7f2f 58bc 53c3 c939 19d1 bd3a 6b2d 353b
00000180: e58e 1639 e2bd 23bb 168d 453c 1c48 fbbb
00000190: 084a b5b7 f2e0 18bc a3be 783a aae6 843c
000001a0: 5c02 b6bb 1118 12bc c282 f8ba eca3 31bc
000001b0: 79ae 6c39 68b2 00ba 4443 423b e88b 643a
000001c0: ec0d 90bc 8a5d bebb 4ed9 bfba e486 0cbc
000001d0: b5e5 edb9 cea2 8ebb 5543 0a3c b312 213c
-0.005452357 -0.0055325553 0.013030704 -0.00256666 0.00043457857 0.002282387 0.0032363718 0.000144068
-0.01022534 -0.004496345 -0.0073109902 0.0009510133 -0.010938284 0.008398107 -0.00047094497 -0.003841423
0.0026390878 0.0073473947 0.01860639 0.010289978 -0.003818674 0.005308815 0.006487386 0.002137556
0.00010989537 0.0027855025 -0.0066520525 0.0030100308 -0.005612906 -0.0012294492 0.0064715017 0.0013338797
0.0106089 -0.0012973542 0.0013008924 -0.0051172455 -0.0046906606 -0.0070589087 -0.0015191586 0.0031005086
-0.00083738443 -0.004085496 -0.0007279545 0.0016090735 -0.015622633 0.004148068 -0.0031204124 -0.011969299
-0.0049470454 0.011175049 -0.0040292577 0.0019401695 -0.0025143381 0.0059205308 -0.0030985072 0.009096866
0.0077052135 0.00709596 0.0026597292 -0.0035296078 0.0010647967 -0.0021873577 -0.00026117734 -0.0005277604
-0.009122451 -0.0044011916 -0.00504975 0.0076291785 -0.00032020657 -0.0024656611 -0.0021936668 0.013334295
9.682769e-05 0.004588742 0.0065363008 0.00793843 -0.008039001 -0.0021438038 -0.0014715691 -0.012120635
0.0051442054 -0.00500692 0.003268097 0.0034633945 -0.0022902524 -0.01817736 -0.0058484576 0.0013816063
-0.005039051 -0.007993646 -0.0038258422 -0.0029285634 -0.013194918 0.00038483235 0.0014481872 0.002764548
0.00014358347 -0.0024985005 0.012057563 -0.007668508 -2.1611355e-05 -0.009330975 0.00094888563 0.01622327
-0.0055544805 -0.008916871 -0.0018959867 -0.010842305 0.0002257171 -0.0004909397 0.0029642144 0.00087183574
-0.017584763 -0.0058094906 -0.0014636905 -0.008577082 -0.00045375308 -0.004352904 0.008438905 0.009831118

weight f4 [120]
00000000: b5f7 883f 77ee 853f 4f82 853f 415d 7a3f
00000010: b22a 8f3f 377c 8b3f 82df 853f 4240 833f
00000020: 059f 713f cce3 843f 9c95 843f d0c4 833f
00000030: b5e5 843f dfec 813f fcd2 873f 49be 823f
00000040: 50d7 863f 8636 8e3f 475c 803f 2b57 823f
00000050: 4bf5 8d3f fbfb 883f 5352 863f d5ab 823f
00000060: 2fec 813f 361b 853f 097f 833f 1ed0 883f
00000070: f119 823f 58c0 823f 45ab 823f de5c 833f
00000080: 6159 853f 1382 853f 063a 8c3f 4ed3 833f
00000090: 0e65 833f 088a 873f 38a1 873f 6de3 813f
000000a0: cb22 863f d7ff 833f 1f65 853f 0ddb 893f
000000b0: b3fb 7d3f c6d0 813f 7eda 823f a172 853f
000000c0: 2340 883f b70c 823f db2e 7a3f 0d76 8a3f
000000d0: 3b06 883f ecdc 823f 0203 853f 559c 853f
000000e0: a36d 833f a62b 7b3f 5bdd 7d3f ae25 833f
000000f0: d090 7f3f 6ca9 883f 802a 8c3f 56ce 803f
00000100: 793e 843f b3c1 773f c175 733f b388 883f
00000110: d720 823f f1a2 863f 6a78 853f d1cd 893f
00000120: b97c 8e3f e2f9 893f 3f0e 833f 866a 863f
00000130: 85ae 7f3f 9dad 883f d25a 883f d7ff 7f3f
00000140: bd5c 843f 465c 7a3f 7cd7 833f eae4 793f
00000150: c113 893f d2e5 863f 5d66 803f 0d83 853f
00000160: 9c4a 813f 011c 813f 636d 833f db6c 843f
00000170: f63c 833f 4409 843f 1b4e 7f3f 5503 823f
00000180: 9b80 823f 4780 7a3f 15b3 813f 3ed0 843f
00000190: 6e1f 883f 0568 813f f0bf 803f 6bb3 843f
000001a0: acc1 853f 69cd 883f 7e07 883f 4b1b 803f
000001b0: 73a7 853f 9ff8 883f c461 833f 94cd 773f
000001c0: 88da 8b3f 19f1 873f 77f9 843f 4556 8d3f
000001d0: 91ad 843f ef0d 863f 5ba6 723f 8551 833f
1.0700594 1.0463399 1.0430392 0.97798544 1.1184905 1.0897282 1.0458834 1.0253985
0.9438327 1.0382018 1.0358157 1.0294437 1.0382601 1.0150412 1.0611262 1.021432
1.0534458 1.1110389 1.0028161 1.0182852 1.1090482 1.0701898 1.0493873 1.0208689
1.0150203 1.0398929 1.0273143 1.0688512 1.0164167 1.0214949 1.0208517 1.0262716
1.0417901 1.043032 1.0955207 1.029886 1.0265214 1.0588999 1.0596075 1.014753
1.0479368 1.0312451 1.0421485 1.0769974 0.9921219 1.0141838 1.0222929 1.0425607
1.0644573 1.016013 0.97727746 1.0817276 1.0626901 1.022367 1.0391543 1.0438334
1.0267833 0.9811348 0.99165887 1.0245874 0.9983034 1.0676703 1.095047 1.0062969
1.0331565 0.96779937 0.95101553 1.0666717 1.0166272 1.0518476 1.0427372 1.0765935
1.1131812 1.0779383 1.0238723 1.0501258 0.9987567 1.0677983 1.0652716 0.99999756
1.0340801 0.9779705 1.0300136 0.9761492 1.0709153 1.0538886 1.0031239 1.0430619
1.0100894 1.0086671 1.0267757 1.034572 1.0252979 1.0315328 0.99728554 1.0157267
1.0195497 0.97851986 1.0132776 1.037605 1.0634592 1.0109869 1.0058575 1.0367254
1.0449729 1.0687686 1.0627286 1.0008329 1.0441726 1.0700873 1.0264211 0.9679806
1.0926065 1.0620452 1.0388631 1.1041952 1.0365468 1.0473002 0.9478509 1.0259253

bias f4 [120]
00000000: 7a54 a23b 0b8d df3c 6ba7 47bc 72bc 2d3b
00000010: 7163 13bb 4ee0 a93c 52bd 4f3c cfa7 3dbd
00000020: 1cec b1bd 183f 67bd 2042 d43b 1244 0fbd
00000030: 474c 953c 240d 70bb cb74 9bbd 469f cc3b
00000040: 777f 5b3d 2a50 833d 32b1 2abc c761 71bc
00000050: 774f fb3b 8730 c3bc 731c 833c f810 ae3c
00000060: 34e0 00bd 1aa9 a23c 7cb4 65bd 41ca f33c
00000070: 7750 91bb 4334 d5bc 5f06 b5bc 8b71 10bd
00000080: a722 38bd 9866 75bb 7502 9f3c ae4f e2bc
00000090: f733 33bc 44d8 9fbb d4b3 d0ba e2ec c63c
000000a0: 3bdf 993b fca1 9cbc 394b 89bc 2576 ccbb
000000b0: f138 00bd 7be6 4cbd 3df6 19bd 3b89 5fbb
000000c0: 6824 3e3b 9ee5 143c 4235 67bd 9d9a 913c
000000d0: 18f0 a23c 0d04 23bd 38d7 a7bc a68a 83bc
000000e0: 819b 53bd 17f7 16bd 3262 46bd d07b d3bb
000000f0: ba71 05bd 3a1b 843c 223e 983c 053f b4bb
00000100: c601 bc3b 7447 39bd 97a7 463c 2dce 023d
00000110: 6221 0639 1007 893d a46b 2b3d eda5 883d
00000120: 5833 09bd 836f 9b3c c4c0 28ba 9d83 ef3c
00000130: 5f2d c23a 2332 963c 24a2 8bbd 18fc 5ebd
00000140: e76c 3ebc cd31 9abc b08a 8b3c 5079 63bd
00000150: c0a4 5c3c 8495 9ebc 5761 96bd 6297 bd3b
00000160: 6111 1abd 3221 98bc 1aba febb dc6c e9bc
00000170: ffb7 c03c 419d 203d 0850 65bd 2b09 4cbc
00000180: ea1a 8ebd 77e1 0bbd d789 9f3a c77e 453c
00000190: 1050 13bd 1359 44bd e8e4 82bc b70e 32bc
000001a0: d65a a43a ed84 af3c 6a9a fbbc 692a 56bd
000001b0: 55d9 76bc 4c2b a53c 56b6 f0bc 6af3 bcbc
000001c0: e938 da3b a148 0d3c 2612 97bb c4d2 513d
000001d0: 2c31 a5bb e9b7 34bc fc00 38bd 4512 83bc
0.004953918 0.027288934 -0.012185912 0.0026510027 -0.0022489692 0.02073684 0.012679415 -0.046302613
-0.086876124 -0.056456655 0.0064776093 -0.034977026 0.018224848 -0.0036628926 -0.07590636 0.006244573
0.053588357 0.064117745 -0.010418223 -0.014732785 0.007669385 -0.02382685 0.016004777 0.021248326
-0.031463817 0.019856025 -0.056080326 0.029759528 -0.004434641 -0.026025897 -0.022097765 -0.035264533
-0.044954922 -0.0037445184 0.019410351 -0.027625885 -0.010937682 -0.004878076 -0.0015922734 0.024282876
0.0046958006 -0.019120209 -0.016759502 -0.00623967 -0.031304304 -0.05002449 -0.037588347 -0.0034108895
0.00290134 0.009087948 -0.056447275 0.01777392 0.019889876 -0.039798785 -0.020488366 -0.016057324
-0.051661972 -0.036856737 -0.04843349 -0.0064539686 -0.03257916 0.016126264 0.018584315 -0.0055006766
0.005737516 -0.04523416 0.0121249175 0.031934906 0.00012791672 0.066908 0.0418507 0.06672273
-0.03349623 0.018974071 -0.0006437416 0.029237563 0.0014814547 0.018334454 -0.06818035 -0.054439634
-0.011622644 -0.018822575 0.017033905 -0.055535614 0.013467014 -0.019358404 -0.07342785 0.0057858685
-0.03761423 -0.018570516 -0.00777365 -0.028494291 0.023525236 0.03921247 -0.055984527 -0.012453358
-0.06938727 -0.034150567 0.0012171817 0.012054152 -0.035965025 -0.04793651 -0.015978292 -0.010867766
0.0012539278 0.021425689 -0.030713279 -0.05228654 -0.015066464 0.020162247 -0.02938382 -0.023065288
0.0066596163 0.008623273 -0.0046103178 0.051226392 -0.005041262 -0.011030176 -0.044922814 -0.015999923

running_mean f4 [120]
00000000: 24ca 6d3d de3b 51bf 4c0e 673e 9654 803e
00000010: 55ab 9ebd 34da 33be 63c0 49bf b752 2f3f
00000020: 5100 873f b4b1 173d 2524 15bf fc5b 92be
00000030: 208b 4f3d f111 493f 5ffd c43e 522b 843e
00000040: 7c31 a7bd 09ff 1c3e 01f9 1f3f 2217 acbe
00000050: 68a6 453e db74 02be b6f6 73bf 1134 a93e
00000060: edfe babe 4d6c 0abf 8d5e 2c3f cbf7 a33e
00000070: 0b1f b63b 6fc2 2c3e 3a19 b4be db90 aabe
00000080: 3925 92bf 168c 8dbe 5d8e 27be 4bdb 2bbf
00000090: 9e7e 323f b87d 67be 5b57 57bf 4fd7 33bf
000000a0: 889e 26bf 9f72 a8bc e085 b33e 1412 afbe
000000b0: 5345 003f e784 1a3f bca7 6fbe d1ac 9c3e
000000c0: ebd7 18bf 266f 69bf 56d4 93be fca7 41bf
000000d0: d560 93bf 8223 2cbf 3594 0d3f 6476 243e
000000e0: ad14 b8be df60 38bf 2898 debe 9b93 a63c
000000f0: e91e bfbc 3cc1 cbbe 1b38 4e3e 851b 1abf
00000100: de04 20bf f4d5 253f 71e8 01bf 4f85 9ebe
00000110: f36b 0a3e 7e0b 1abf 25ab 5fbf fb19 afbe
00000120: 5848 48bf f75c da3e 71fc 0d3f f02a 07be
00000130: 66c0 c4bf e145 6a3e 3836 da3e b07a b9be
00000140: b5ad 7fbe 3ab0 66be 877e 3dbf c710 87be
00000150: f4ac e8be 8899 78bf d4bb c63e b051 31bf
00000160: 37b2 7bbe 05c3 393f 51b7 32be 4fbd febd
00000170: b134 89be 2701 89be aa5c 76bf 2961 73bf
00000180: 2777 c73e 213c eebd 2ecd 833e fafa 18bf
00000190: abe9 193e 0078 86bf edf6 1fbf 77eb 513d
000001a0: 0bb4 1cbe f179 29bf ea5f 4abe 91c6 22be
000001b0: 6c33 85bf f2e6 1e3e 3006 92be af10 2b3f
000001c0: 4698 6fbe 9d0f 50bf 8af6 343d cae5 633d
000001d0: 6005 efbe 54c4 453e ead0 47bf 492a 263f
0.058054104 -0.81731975 0.22564048 0.25064534 -0.07747523 -0.17563707 -0.78809184 0.6848559
1.0546972 0.037034705 -0.5825828 -0.28585804 0.05066979 0.78543 0.38474557 0.258143
-0.08163735 0.15331663 0.62489325 -0.336114 0.1930176 -0.1273989 -0.95298326 0.33047536
-0.36522618 -0.54071504 0.67331773 0.3202499 0.0055579 0.16871046 -0.35175496 -0.3331364
-1.141761 -0.2764594 -0.16362901 -0.6713149 0.6972445 -0.22606552 -0.8411767 -0.7025041
-0.6508565 -0.020562468 0.35063076 -0.3419348 0.5010578 0.6035904 -0.2340383 0.30600598
-0.59704465 -0.91185224 -0.28872937 -0.7564695 -1.1513926 -0.6724168 0.5530427 0.16060787
-0.35953274 -0.72022814 -0.4347546 0.020334056 -0.023330169 -0.39795864 0.2013859 -0.6019824
-0.62507427 0.6477959 -0.507453 -0.3096108 0.13517742 -0.60173786 -0.8737052 -0.3419951
-0.7823539 0.42649052 0.5546332 -0.13199973 -1.5371215 0.22878219 0.4261949 -0.36226416
-0.24968608 -0.22528163 -0.7402119 -0.26379988 -0.45444453 -0.9710927 0.38815176 -0.6926527
-0.24579702 0.725632 -0.17452742 -0.124384515 -0.26798013 -0.26758692 -0.96235144 -0.9507013
0.38958094 -0.116325624 0.25742477 -0.5975796 0.15030544 -1.0505371 -0.62486154 0.051249947
-0.15303056 -0.6620169 -0.19763151 -0.1589606 -1.0406318 0.15517786 -0.28520346 0.6682233
-0.23397931 -0.81273824 0.04418043 0.055639066 -0.46683788 0.19313174 -0.7805315 0.6490827

running_var f4 [120]
00000000: 6257 253e 8b35 873e c7c2 913e 17d7 b83e
00000010: 8133 8a3e 15be 223e 986a 8b3e 1c1f 883e
00000020: a630 b33e fcee 243e 75d7 453e d74d b73e
00000030: c951 873e c0d1 c73e 40b6 9b3e 618d d43e
00000040: 133d af3e 8ce5 383e b229 803e 459d 4c3e
00000050: d468 863e 9205 4a3e 8ea2 a03e 8970 853e
00000060: 5591 6d3e de3d 553e 704d 613e f709 513e
00000070: b0f2 b93e a52d 583e cb35 a03e 3929 4c3e
00000080: c1b0 793e 23d9 4f3e 2707 333e 5e5c 9c3e
00000090: b2a4 093f 376b 2c3e 6e1c 8c3e 8b98 853e
000000a0: a44e 9e3e 591d 263e 2cca 453e a639 483e
000000b0: 5200 093f ddd2 ff3d 2423 633e cf30 383e
000000c0: 4965 513e 4d7c 513e 01f8 663e 751a 7a3e
000000d0: 36ab 643e 8fb7 5a3e ec8c 8a3e 2702 5a3e
000000e0: 5f2b 683e 7a6a 863e 95d7 a03e 3ec9 ae3e
000000f0: 9769 c33e 63c0 353e 3a71 7f3e 00c0 873e
00000100: 3191 7b3e babf 5c3e 5238 7d3e 3c4d aa3e
00000110: c910 263e 465b 203e 8ec4 693e b6dc 273e
00000120: caca 8c3e 24de 6c3e be7a 853e b9dd 2b3e
00000130: 1cb6 a53e bfc5 b73e b899 793e 1552 f73d
00000140: 8a44 283e a9d8 663e 0c38 703e 377f 4b3e
00000150: 89a4 a93e 3ae7 403e 2969 483e f453 403e
00000160: 7245 903e 3f83 5f3e 2a8b 1a3e b959 3f3e
00000170: 5dc5 a53e ba1f 8f3e 0df9 4b3e 3d57 263e
00000180: 24b1 813e 9578 1b3e acd8 7e3e e88c 223e
00000190: a725 8e3e 4056 793e d22e 343e ee32 063e
000001a0: a2fe 193e edf7 bc3e 5f3e 7a3e 84f4 3a3e
000001b0: b3aa 3e3e a60d 553e 8702 3d3e 8a9c 873e
000001c0: f0a0 3d3e 0cd5 463e acfe 663e 2bcb 883e
000001d0: 520b 573e bc53 cd3e 0c4c 1f3e 77ea 473e
0.16146615 0.26408038 0.28468916 0.361016 0.2699242 0.15892823 0.27229762 0.26586235
0.34998053 0.1610679 0.19320472 0.35801575 0.26429585 0.39027214 0.30412483 0.41514114
0.34226283 0.18056315 0.2503181 0.19981869 0.26251853 0.19728687 0.3137402 0.2606242
0.23199971 0.20824382 0.22002196 0.20413958 0.36317968 0.21111162 0.3129104 0.199376
0.24383833 0.20297675 0.17483197 0.3053922 0.5376693 0.16837774 0.2736544 0.26092944
0.30919373 0.16222133 0.19315404 0.19553241 0.53516114 0.12491391 0.22181374 0.17987369
0.20448793 0.20457573 0.22555543 0.24424155 0.22330937 0.21359085 0.2706064 0.21289884
0.22672795 0.2625311 0.31414476 0.3413791 0.38166496 0.17749171 0.24945536 0.26513672
0.24567105 0.21557513 0.24728516 0.3326205 0.1621734 0.15659818 0.22828886 0.16392788
0.27498466 0.23131615 0.26070207 0.16783799 0.323655 0.35893056 0.24375045 0.12076203
0.16432396 0.22543587 0.2345888 0.19872747 0.33133343 0.18838206 0.19571365 0.18782026
0.28177983 0.2182741 0.1509215 0.1868657 0.3237714 0.27953893 0.19919224 0.16244216
0.2533046 0.15182717 0.24887341 0.15874064 0.277631 0.24349308 0.17595986 0.13105366
0.15038541 0.36907902 0.24437855 0.18257338 0.18619804 0.20805988 0.18457995 0.26486617
0.18518424 0.19417208 0.22558087 0.26717505 0.21000412 0.40102947 0.15556353 0.19523035

weight f4 [84, 120]
00000000: 2ad8 313c 9667 4e3e 8eba edbd f11f ff3d
00000010: 4d7d a53d f657 b4bd 9f53 053e 5090 553e
00000020: e3aa 903c f3bc c6bd da0b 203e 527e abbd
00000030: 2d03 1e3e 6d07 0c3e ec52 2d3e d198 a33b
00000040: 27e1 df3b e10b 073c 9c6e 103e d5d2 9dba
00000050: b6a4 193e 4c3f 573e 8cca 9abd 7836 e2bd
00000060: c86e da3d 4ad0 cbbd 4be0 27be e64c 0c3e
00000070: 0a80 5d3e c255 2b3d 0458 0e3c 05d1 75bd
00000080: 0bf8 9bbd 840d 4bbc 292e 0bbd ada5 21bd
00000090: b1dc 283e bd47 6d3d c9e5 ca3d 4500 75bd
000000a0: 40a3 2dbd b182 a43d 5494 9d3b 2bff 2b3e
000000b0: 70a5 5e3e 687c 97bd 061a 2f3e 6e58 aebc
000000c0: 9903 9dbd a868 ce3d f09d 94bc 0d67 943d
000000d0: 1a6c 243e d442 48bd e094 5bbd f457 b2bd
000000e0: 39c2 17be 0622 e93c d2d6 dfbd 86cc a5bd
000000f0: 244a 303e af3e fdbc d615 d9bc 769b 24be
00000100: e382 8b3d 4141 d93d e738 5f3d 9d82 963d
00000110: c14f baba 736c d03d 7cf1 ab3d 29f8 84bd
00000120: 490b 1a3d 7fd3 453c dd0f cfbd 2c23 953d
00000130: 3b42 1e3d c0df b9bd eefe 6d3d ce3e fbbd
00000140: 24c3 853d a2a4 433d a4b7 663d 30ef 89bb
00000150: 5d8a 223e b5e9 e73d 5d7f 37bd 77ed 8fbd
00000160: 8187 333e bf1e 72bd 180d dabd c752 9c3d
00000170: ae29 05be d4d4 26be 33e8 d5bd b1de a0bb
00000180: e67b e5bc 1cf4 43be e22b 163c 568e 0cbe
00000190: e0ee cebd ee53 f53d 4d03 1f3e 16f3 1d3e
000001a0: 132c f9bd 74be 733e 25cb 243d 76ea f63d
000001b0: 97a9 0ebd 0e48 c9bd a098 64bc f6a9 e03d
000001c0: 15fb 60bd 7976 8e3d a795 773d 4036 aabd
000001d0: 3fb4 e9bd 87fe 1c3e 16d9 3fbe 4f80 1ebd
000001e0: 1bbf 0a3e 8d48 aebd fd7b 453e f6f6 24bd
000001f0: c922 da3d 99c7 393e 0bb5 3b3e 4300 77bd
00000200: b33c c7bb 8fdd 3cbe 7317 1d3e 6987 103e
00000210: 1493 873d c795 13bd b91b 413e d92a e83d
00000220: a377 3e3e cf3a de3d c682 323d 658d 05be
00000230: 9ecc 313b 9823 b73d 7b6d 3f3e b25b 983d
00000240: 054c d03d 6c9f a43d 0071 c43d 62bf 3d3e
00000250: 9e81 91bd 3812 1c3d 44d1 96bd 9897 38be
00000260: 7f07 083d 9d0d 463e daac 8cbd 50fb 8cbd
00000270: 7e73 d83d 7049 aabd 223d 71bc 85f5 5a3c
00000280: 10be f7bd e76b 053d 23fe 923d 626a 03be
00000290: 96e3 743d c885 dcbb 0546 0abc 29cf 853c
000002a0: e6d2 593e 8f88 5f3d b7ea c63d 784e 023e
000002b0: 7038 4f3d 3e35 a73d 8e93 2f3e 23e3 07be
000002c0: 3fd9 993d 632a 403d cf5a cc3d f9df 013d
000002d0: 491a 65bd 15a0 0dbe 9dae 9bbd 79f3 9dbd
000002e0: b28a 15bd af9f e8bd b6ed 143b 9a8c f5bc
000002f0: c727 b3bd e3fc 43be f0e1 083e 2196 d13d
00000300: e6dd 473c 533e 06be ba91 e43d 8604 de3d
00000310: 4fbe 53be d9d8 5abe 0002 cdbd 0494 333d
00000320: d523 4c3d b8bd 2f3e a9ec 02be c4ce aa3d
00000330: 46a8 183e bda7 18bb 2137 a9bc 4ab1 02be
00000340: 7050 f73d 3717 2fbe 8f2a fc3d 74f1 eebd
00000350: c1b1 ecbd be2d 993c 7b57 a1bd aa1c a63d
00000360: 08ae c5bd 5b6e bc39 c874 f3bd c688 ab3c
00000370: f183 2b3c 2c5e e8bb 52c7 0dbe 9e79 443e
00000380: 180e f9bd 9a0c 7bbd 9967 3bbd 6f02 303d
00000390: 4c14 25be c5b8 ffbd f15f 8ebd 29c8 0f3b
000003a0: a059 f93d 37d9 f3bd f84f 02be cc7a 4f3d
000003b0: 75fa 7cbd 228c e53d 2d6e 20be dc07 203e
000003c0: cbe2 69bc 4685 913c 2aba a5bc d41c 9a3d
000003d0: 23d5 943c 5f08 adbd e69a 9a3c 85f6 0a3e
000003e0: 189d 243e cd4a 09be d026 693e d4b7 25bd
000003f0: 9ed5 c83c 4c0f b2bd 0c26 bf3c ef51 f33d
0.01085476 0.20156702 -0.11607848 0.12457264 0.0808054 -0.0880584 0.1302018 0.20855832
0.01765961 -0.09704008 0.15629521 -0.08373703 0.15430899 0.13674708 0.16926163 0.0049925824
0.00683226 0.008242578 0.14104694 -0.0012040982 0.15004238 0.2102024 -0.07558164 -0.11045545
0.10665661 -0.09951837 -0.16394155 0.1370121 0.21630874 0.041829832 0.008687977 -0.06001379
-0.0761567 -0.012393359 -0.03397957 -0.03946464 0.16490437 0.057929743 0.09907109 -0.05981471
-0.042392015 0.0803274 0.004808942 0.16796558 0.21742797 -0.073967755 0.17099771 -0.021282401
-0.07666702 0.10078555 -0.018141717 0.07246218 0.16056862 -0.048891857 -0.053608775 -0.08708182
-0.14820184 0.028458606 -0.109296456 -0.080956504 0.17215782 -0.030913679 -0.02649967 -0.16074929
0.06812074 0.10608149 0.054497626 0.07349131 -0.0014214442 0.10176935 0.08395669 -0.06492645
0.03760842 0.01207435 -0.101104476 0.07282099 0.03863738 -0.0907588 0.058104448 -0.122678384
0.06531361 0.047764428 0.056327477 -0.0042094216 0.15873094 0.11323873 -0.044799197 -0.07027715
0.1753216 -0.059111353 -0.10647029 0.07632976 -0.13004181 -0.16292125 -0.10444679 -0.0049093594
-0.028013181 -0.19136089 0.009165736 -0.13726172 -0.101041555 0.11978899 0.15528603 0.15424761
-0.121666096 0.23803121 0.040232796 0.120564386 -0.034829702 -0.098281965 -0.013952404 0.109699175
-0.05492695 0.069561906 0.060445454 -0.083111286 -0.11411332 0.1533147 -0.18735155 -0.038696583
0.13549463 -0.08509932 0.19285579 -0.040274583 0.10651166 0.18142547 0.18330781 -0.060302984
-0.006080234 -0.18443893 0.15340976 0.14114155 0.0661985 -0.03603151 0.18858232 0.113362975
0.18600325 0.108510606 0.043581747 -0.13042219 0.0027130018 0.08942336 0.18694107 0.074393645
0.101707496 0.0803822 0.095918655 0.18530038 -0.07104801 0.038103312 -0.07364133 -0.18026578
0.033210274 0.1934113 -0.06868906 -0.068838716 0.105689034 -0.08314788 -0.014724048 0.0133642005
-0.120967984 0.032573607 0.07177379 -0.1283355 0.059787355 -0.006729815 -0.0084395455 0.016334133
0.21271858 0.05457359 0.09712737 0.12725246 0.050590932 0.08164452 0.17146131 -0.1327024
0.075121395 0.046915423 0.09978258 0.031707738 -0.05593327 -0.13830598 -0.07601664 -0.07712454
-0.036509223 -0.11358582 0.0022724695 -0.02997427 -0.08747821 -0.19139437 0.13367438 0.10233713
0.012198901 -0.13109712 0.11160608 0.108407065 -0.20678066 -0.21371783 -0.10010147 0.04384233
0.04983886 0.17162216 -0.12785591 0.08340219 0.14907941 -0.002329334 -0.02065617 -0.12762943
0.12075889 -0.170987 0.12312805 -0.11667147 -0.11557341 0.01869857 -0.07878014 0.08110936
-0.096523345 0.00035940376 -0.11887509 0.020939242 0.010468469 -0.0070913043 -0.13845566 0.19187018
-0.12160891 -0.061291315 -0.045753095 0.04297107 -0.16121024 -0.12486414 -0.06951893 0.0021939373
0.12175298 -0.11906665 -0.12725818 0.050654218 -0.061762292 0.11208369 -0.15667029 0.15627998
-0.014275263 0.017763745 -0.020230372 0.0752503 0.018168038 -0.08448862 0.01887269 0.13570602
0.16075552 -0.1340744 0.22768712 -0.040458515 0.024515923 -0.08694324 0.023333572 0.11880862

bias f4 [84]
00000000: a20d 6f3c cec0 913c 9f94 5b3c fb4d 15bd
00000010: 2ada e53b ce2f 603c d39c 193c 3303 153c
00000020: 5745 a0bb fa6d 9c3c ecbd a43c ff08 103d
00000030: 2001 3a3c 1746 4e3a faaf e73b c5df 953c
00000040: e8ef 03bc b79b c6bb 694b 79bc 4b35 f93b
00000050: 7ba5 c73c 3f95 863c f871 e0bb 0e39 cf3c
00000060: 6659 203c 75bc 56bb 624e 09bc 06ac babc
00000070: 96f8 49bb 9417 d53b ce36 7bbc f64f ef3c
00000080: f0bf 783b fc97 9a3b 1fab 333c dc8a b63c
00000090: 454a b13b c706 433a 1b2d 493c e738 363c
000000a0: 148e a1bc ed3c 0f3d 4251 75bc 5bb1 c93a
000000b0: 6547 4b3d 1093 21bd 3f46 85ba f5e7 143d
000000c0: 841f d03c 3bc3 c6bb 80fb 9bbc 953f 1e3b
000000d0: 15a0 13bc 2932 98bc 478a 263c 5a95 043c
000000e0: 506c 753b d125 4e3c bfe5 03bc 6913 623c
000000f0: 1ffd ebbb c26d cf3c 74a6 673b 9e09 c73c
00000100: b928 933b 1c3f 31bc b9d9 853c 74b7 c93c
00000110: 7738 ddbc 13c6 49bb 99d3 5bbc b2bb 853c
00000120: ea8e a6bc 9a6c b53c 6587 f63c 51b5 993c
00000130: fe51 fabb 031d 473c 6216 9c3c 7c62 76bc
00000140: 5977 453a 7860 75bb 5b05 0bbd 8d5b c23b
0.014590653 0.017792132 0.013402133 -0.03645132 0.0070145326 0.0136832725 0.009375769 0.009095001
-0.0048910785 0.01909541 0.020110093 0.03516483 0.011352807 0.00078687206 0.0070705386 0.018295178
-0.008052804 -0.006061043 -0.015215733 0.00760523 0.0243709 0.016428588 -0.0068495236 0.02529576
0.009786939 -0.0032766138 -0.008380504 -0.022787105 -0.0030818335 0.006503055 -0.015332891 0.029212933
0.00379562 0.004717825 0.010966091 0.02228301 0.005410465 0.00074396696 0.01227882 0.011121965
-0.019721068 0.034970213 -0.014972987 0.0015387939 0.049628634 -0.03944689 -0.001016803 0.036354024
0.025405653 -0.0060657538 -0.019040823 0.0024146785 -0.0090103345 -0.018578606 0.010164804 0.008092249
0.0037448592 0.012582258 -0.008050381 0.013798573 -0.0072018052 0.025320891 0.0035347017 0.024296578
0.0044909385 -0.010818269 0.01633917 0.02462361 -0.027004464 -0.0030788227 -0.013417148 0.016324852
-0.020331819 0.022146512 0.030093858 0.018763216 -0.0076391688 0.012152913 0.019053642 -0.015038129
0.0007532738 -0.0037441533 -0.033940654 0.005931324
